…
el name tf_efficientnetv2_s_in21ft1k to current tf_efficientnetv2_s.in21k_ft_in1k.
  model = create_fn(
/home/hsujenlung/miniconda3/envs/Roy/lib/python3.8/site-packages/torch/cuda/__init__.py:654: UserWarning: Can't initialize NVML
  warnings.warn("Can't initialize NVML")
EfficientNet(
  (conv_stem): Conv2dSame(3, 24, kernel_size=(3, 3), stride=(2, 2), bias=False)
  (bn1): BatchNormAct2d(
    24, eps=0.001, momentum=0.1, affine=True, track_running_stats=True
    (drop): Identity()
    (act): SiLU(inplace=True)
  )
  (blocks): Sequential(
    (0): Sequential(
      (0): ConvBnAct(
        (conv): Conv2d(24, 24, kernel_size=(3, 3), stride=(1, 1), padding=(1, 1), bias=False)
        (bn1): BatchNormAct2d(
          24, eps=0.001, momentum=0.1, affine=True, track_running_stats=True
          (drop): Identity()
          (act): SiLU(inplace=True)
        )
        (aa): Identity()
        (drop_path): Identity()
      )
      (1): ConvBnAct(
        (conv): Conv2d(24, 24, kernel_size=(3, 3), stride=(1, 1), padding=(1, 1), bias=False)
        (bn1): BatchNormAct2d(
          24, eps=0.001, momentum=0.1, affine=True, track_running_stats=True
          (drop): Identity()
          (act): SiLU(inplace=True)
        )
        (aa): Identity()
        (drop_path): Identity()
      )
    )
    (1): Sequential(
      (0): EdgeResidual(
        (conv_exp): Conv2dSame(24, 96, kernel_size=(3, 3), stride=(2, 2), bias=False)
        (bn1): BatchNormAct2d(
          96, eps=0.001, momentum=0.1, affine=True, track_running_stats=True
          (drop): Identity()
          (act): SiLU(inplace=True)
        )
        (aa): Identity()
        (se): Identity()
        (conv_pwl): Conv2d(96, 48, kernel_size=(1, 1), stride=(1, 1), bias=False)
        (bn2): BatchNormAct2d(
          48, eps=0.001, momentum=0.1, affine=True, track_running_stats=True
          (drop): Identity()
          (act): Identity()
        )
        (drop_path): Identity()
      )
      (1): EdgeResidual(
        (conv_exp): Conv2d(48, 192, kernel_size=(3, 3), stride=(1, 1), padding=(1, 1), bias=False)
        (bn1): BatchNormAct2d(
          192, eps=0.001, momentum=0.1, affine=True, track_running_stats=True
          (drop): Identity()
          (act): SiLU(inplace=True)
        )
        (aa): Identity()
        (se): Identity()
        (conv_pwl): Conv2d(192, 48, kernel_size=(1, 1), stride=(1, 1), bias=False)
        (bn2): BatchNormAct2d(
          48, eps=0.001, momentum=0.1, affine=True, track_running_stats=True
          (drop): Identity()
          (act): Identity()
        )
        (drop_path): Identity()
      )
      (2): EdgeResidual(
        (conv_exp): Conv2d(48, 192, kernel_size=(3, 3), stride=(1, 1), padding=(1, 1), bias=False)
        (bn1): BatchNormAct2d(
          192, eps=0.001, momentum=0.1, affine=True, track_running_stats=True
          (drop): Identity()
          (act): SiLU(inplace=True)
        )
        (aa): Identity()
        (se): Identity()
        (conv_pwl): Conv2d(192, 48, kernel_size=(1, 1), stride=(1, 1), bias=False)
        (bn2): BatchNormAct2d(
          48, eps=0.001, momentum=0.1, affine=True, track_running_stats=True
          (drop): Identity()
          (act): Identity()
        )
        (drop_path): Identity()
      )
      (3): EdgeResidual(
        (conv_exp): Conv2d(48, 192, kernel_size=(3, 3), stride=(1, 1), padding=(1, 1), bias=False)
        (bn1): BatchNormAct2d(
          192, eps=0.001, momentum=0.1, affine=True, track_running_stats=True
          (drop): Identity()
          (act): SiLU(inplace=True)
        )
        (aa): Identity()
        (se): Identity()
        (conv_pwl): Conv2d(192, 48, kernel_size=(1, 1), stride=(1, 1), bias=False)
        (bn2): BatchNormAct2d(
          48, eps=0.001, momentum=0.1, affine=True, track_running_stats=True
          (drop): Identity()
          (act): Identity()
        )
        (drop_path): Identity()
      )
    )
    (2): Sequential(
      (0): EdgeResidual(
        (conv_exp): Conv2dSame(48, 192, kernel_size=(3, 3), stride=(2, 2), bias=False)
        (bn1): BatchNormAct2d(
          192, eps=0.001, momentum=0.1, affine=True, track_running_stats=True
          (drop): Identity()
          (act): SiLU(inplace=True)
        )
        (aa): Identity()
        (se): Identity()
        (conv_pwl): Conv2d(192, 64, kernel_size=(1, 1), stride=(1, 1), bias=False)
        (bn2): BatchNormAct2d(
          64, eps=0.001, momentum=0.1, affine=True, track_running_stats=True
          (drop): Identity()
          (act): Identity()
        )
        (drop_path): Identity()
      )
      (1): EdgeResidual(
        (conv_exp): Conv2d(64, 256, kernel_size=(3, 3), stride=(1, 1), padding=(1, 1), bias=False)
        (bn1): BatchNormAct2d(
          256, eps=0.001, momentum=0.1, affine=True, track_running_stats=True
          (drop): Identity()
          (act): SiLU(inplace=True)
        )
        (aa): Identity()
        (se): Identity()
        (conv_pwl): Conv2d(256, 64, kernel_size=(1, 1), stride=(1, 1), bias=False)
        (bn2): BatchNormAct2d(
          64, eps=0.001, momentum=0.1, affine=True, track_running_stats=True
          (drop): Identity()
          (act): Identity()
        )
        (drop_path): Identity()
      )
      (2): EdgeResidual(
        (conv_exp): Conv2d(64, 256, kernel_size=(3, 3), stride=(1, 1), padding=(1, 1), bias=False)
        (bn1): BatchNormAct2d(
          256, eps=0.001, momentum=0.1, affine=True, track_running_stats=True
          (drop): Identity()
          (act): SiLU(inplace=True)
        )
        (aa): Identity()
        (se): Identity()
        (conv_pwl): Conv2d(256, 64, kernel_size=(1, 1), stride=(1, 1), bias=False)
        (bn2): BatchNormAct2d(
          64, eps=0.001, momentum=0.1, affine=True, track_running_stats=True
          (drop): Identity()
          (act): Identity()
        )
        (drop_path): Identity()
      )
      (3): EdgeResidual(
        (conv_exp): Conv2d(64, 256, kernel_size=(3, 3), stride=(1, 1), padding=(1, 1), bias=False)
        (bn1): BatchNormAct2d(
          256, eps=0.001, momentum=0.1, affine=True, track_running_stats=True
          (drop): Identity()
          (act): SiLU(inplace=True)
        )
        (aa): Identity()
        (se): Identity()
        (conv_pwl): Conv2d(256, 64, kernel_size=(1, 1), stride=(1, 1), bias=False)
        (bn2): BatchNormAct2d(
          64, eps=0.001, momentum=0.1, affine=True, track_running_stats=True
          (drop): Identity()
          (act): Identity()
        )
        (drop_path): Identity()
      )
    )
    (3): Sequential(
      (0): InvertedResidual(
        (conv_pw): Conv2d(64, 256, kernel_size=(1, 1), stride=(1, 1), bias=False)
        (bn1): BatchNormAct2d(
          256, eps=0.001, momentum=0.1, affine=True, track_running_stats=True
          (drop): Identity()
          (act): SiLU(inplace=True)
        )
        (conv_dw): Conv2dSame(256, 256, kernel_size=(3, 3), stride=(2, 2), groups=256, bias=False)
        (bn2): BatchNormAct2d(
          256, eps=0.001, momentum=0.1, affine=True, track_running_stats=True
          (drop): Identity()
          (act): SiLU(inplace=True)
        )
        (aa): Identity()
        (se): SqueezeExcite(
          (conv_reduce): Conv2d(256, 16, kernel_size=(1, 1), stride=(1, 1))
          (act1): SiLU(inplace=True)
          (conv_expand): Conv2d(16, 256, kernel_size=(1, 1), stride=(1, 1))
          (gate): Sigmoid()
        )
        (conv_pwl): Conv2d(256, 128, kernel_size=(1, 1), stride=(1, 1), bias=False)
        (bn3): BatchNormAct2d(
          128, eps=0.001, momentum=0.1, affine=True, track_running_stats=True
          (drop): Identity()
          (act): Identity()
        )
        (drop_path): Identity()
      )
      (1): InvertedResidual(
        (conv_pw): Conv2d(128, 512, kernel_size=(1, 1), stride=(1, 1), bias=False)
        (bn1): BatchNormAct2d(
          512, eps=0.001, momentum=0.1, affine=True, track_running_stats=True
          (drop): Identity()
          (act): SiLU(inplace=True)
        )
        (conv_dw): Conv2d(512, 512, kernel_size=(3, 3), stride=(1, 1), padding=(1, 1), groups=512, bias=False)
        (bn2): BatchNormAct2d(
          512, eps=0.001, momentum=0.1, affine=True, track_running_stats=True
          (drop): Identity()
          (act): SiLU(inplace=True)
        )
        (aa): Identity()
        (se): SqueezeExcite(
          (conv_reduce): Conv2d(512, 32, kernel_size=(1, 1), stride=(1, 1))
          (act1): SiLU(inplace=True)
          (conv_expand): Conv2d(32, 512, kernel_size=(1, 1), stride=(1, 1))
          (gate): Sigmoid()
        )
        (conv_pwl): Conv2d(512, 128, kernel_size=(1, 1), stride=(1, 1), bias=False)
        (bn3): BatchNormAct2d(
          128, eps=0.001, momentum=0.1, affine=True, track_running_stats=True
          (drop): Identity()
          (act): Identity()
        )
        (drop_path): Identity()
      )
      (2): InvertedResidual(
        (conv_pw): Conv2d(128, 512, kernel_size=(1, 1), stride=(1, 1), bias=False)
        (bn1): BatchNormAct2d(
          512, eps=0.001, momentum=0.1, affine=True, track_running_stats=True
          (drop): Identity()
          (act): SiLU(inplace=True)
        )
        (conv_dw): Conv2d(512, 512, kernel_size=(3, 3), stride=(1, 1), padding=(1, 1), groups=512, bias=False)
        (bn2): BatchNormAct2d(
          512, eps=0.001, momentum=0.1, affine=True, track_running_stats=True
          (drop): Identity()
          (act): SiLU(inplace=True)
        )
        (aa): Identity()
        (se): SqueezeExcite(
          (conv_reduce): Conv2d(512, 32, kernel_size=(1, 1), stride=(1, 1))
          (act1): SiLU(inplace=True)
          (conv_expand): Conv2d(32, 512, kernel_size=(1, 1), stride=(1, 1))
          (gate): Sigmoid()
        )
        (conv_pwl): Conv2d(512, 128, kernel_size=(1, 1), stride=(1, 1), bias=False)
        (bn3): BatchNormAct2d(
          128, eps=0.001, momentum=0.1, affine=True, track_running_stats=True
          (drop): Identity()
          (act): Identity()
        )
        (drop_path): Identity()
      )
      (3): InvertedResidual(
        (conv_pw): Conv2d(128, 512, kernel_size=(1, 1), stride=(1, 1), bias=False)
        (bn1): BatchNormAct2d(
          512, eps=0.001, momentum=0.1, affine=True, track_running_stats=True
          (drop): Identity()
          (act): SiLU(inplace=True)
        )
        (conv_dw): Conv2d(512, 512, kernel_size=(3, 3), stride=(1, 1), padding=(1, 1), groups=512, bias=False)
        (bn2): BatchNormAct2d(
          512, eps=0.001, momentum=0.1, affine=True, track_running_stats=True
          (drop): Identity()
          (act): SiLU(inplace=True)
        )
        (aa): Identity()
        (se): SqueezeExcite(
          (conv_reduce): Conv2d(512, 32, kernel_size=(1, 1), stride=(1, 1))
          (act1): SiLU(inplace=True)
          (conv_expand): Conv2d(32, 512, kernel_size=(1, 1), stride=(1, 1))
          (gate): Sigmoid()
        )
        (conv_pwl): Conv2d(512, 128, kernel_size=(1, 1), stride=(1, 1), bias=False)
        (bn3): BatchNormAct2d(
          128, eps=0.001, momentum=0.1, affine=True, track_running_stats=True
          (drop): Identity()
          (act): Identity()
        )
        (drop_path): Identity()
      )
    )
    (4): Sequential(
      (0): InvertedResidual(
        (conv_pw): Conv2d(128, 768, kernel_size=(1, 1), stride=(1, 1), bias=False)
        (bn1): BatchNormAct2d(
          768, eps=0.001, momentum=0.1, affine=True, track_running_stats=True
          (drop): Identity()
          (act): SiLU(inplace=True)
        )
        (conv_dw): Conv2d(768, 768, kernel_size=(3, 3), stride=(1, 1), padding=(1, 1), groups=768, bias=False)
        (bn2): BatchNormAct2d(
          768, eps=0.001, momentum=0.1, affine=True, track_running_stats=True
          (drop): Identity()
          (act): SiLU(inplace=True)
        )
        (aa): Identity()
        (se): SqueezeExcite(
          (conv_reduce): Conv2d(768, 32, kernel_size=(1, 1), stride=(1, 1))
          (act1): SiLU(inplace=True)
          (conv_expand): Conv2d(32, 768, kernel_size=(1, 1), stride=(1, 1))
          (gate): Sigmoid()
        )
        (conv_pwl): Conv2d(768, 160, kernel_size=(1, 1), stride=(1, 1), bias=False)
        (bn3): BatchNormAct2d(
          160, eps=0.001, momentum=0.1, affine=True, track_running_stats=True
          (drop): Identity()
          (act): Identity()
        )
        (drop_path): Identity()
      )
      (1): InvertedResidual(
        (conv_pw): Conv2d(160, 960, kernel_size=(1, 1), stride=(1, 1), bias=False)
        (bn1): BatchNormAct2d(
          960, eps=0.001, momentum=0.1, affine=True, track_running_stats=True
          (drop): Identity()
          (act): SiLU(inplace=True)
        )
        (conv_dw): Conv2d(960, 960, kernel_size=(3, 3), stride=(1, 1), padding=(1, 1), groups=960, bias=False)
        (bn2): BatchNormAct2d(
          960, eps=0.001, momentum=0.1, affine=True, track_running_stats=True
          (drop): Identity()
          (act): SiLU(inplace=True)
        )
        (aa): Identity()
        (se): SqueezeExcite(
          (conv_reduce): Conv2d(960, 40, kernel_size=(1, 1), stride=(1, 1))
          (act1): SiLU(inplace=True)
          (conv_expand): Conv2d(40, 960, kernel_size=(1, 1), stride=(1, 1))
          (gate): Sigmoid()
        )
        (conv_pwl): Conv2d(960, 160, kernel_size=(1, 1), stride=(1, 1), bias=False)
        (bn3): BatchNormAct2d(
          160, eps=0.001, momentum=0.1, affine=True, track_running_stats=True
          (drop): Identity()
          (act): Identity()
        )
        (drop_path): Identity()
      )
      (2): InvertedResidual(
        (conv_pw): Conv2d(160, 960, kernel_size=(1, 1), stride=(1, 1), bias=False)
        (bn1): BatchNormAct2d(
          960, eps=0.001, momentum=0.1, affine=True, track_running_stats=True
          (drop): Identity()
          (act): SiLU(inplace=True)
        )
        (conv_dw): Conv2d(960, 960, kernel_size=(3, 3), stride=(1, 1), padding=(1, 1), groups=960, bias=False)
        (bn2): BatchNormAct2d(
          960, eps=0.001, momentum=0.1, affine=True, track_running_stats=True
          (drop): Identity()
          (act): SiLU(inplace=True)
        )
        (aa): Identity()
        (se): SqueezeExcite(
          (conv_reduce): Conv2d(960, 40, kernel_size=(1, 1), stride=(1, 1))
          (act1): SiLU(inplace=True)
          (conv_expand): Conv2d(40, 960, kernel_size=(1, 1), stride=(1, 1))
          (gate): Sigmoid()
        )
        (conv_pwl): Conv2d(960, 160, kernel_size=(1, 1), stride=(1, 1), bias=False)
        (bn3): BatchNormAct2d(
          160, eps=0.001, momentum=0.1, affine=True, track_running_stats=True
          (drop): Identity()
          (act): Identity()
        )
        (drop_path): Identity()
      )
      (3): InvertedResidual(
        (conv_pw): Conv2d(160, 960, kernel_size=(1, 1), stride=(1, 1), bias=False)
        (bn1): BatchNormAct2d(
          960, eps=0.001, momentum=0.1, affine=True, track_running_stats=True
          (drop): Identity()
          (act): SiLU(inplace=True)
        )
        (conv_dw): Conv2d(960, 960, kernel_size=(3, 3), stride=(1, 1), padding=(1, 1), groups=960, bias=False)
        (bn2): BatchNormAct2d(
          960, eps=0.001, momentum=0.1, affine=True, track_running_stats=True
          (drop): Identity()
          (act): SiLU(inplace=True)
        )
        (aa): Identity()
        (se): SqueezeExcite(
          (conv_reduce): Conv2d(960, 40, kernel_size=(1, 1), stride=(1, 1))
          (act1): SiLU(inplace=True)
          (conv_expand): Conv2d(40, 960, kernel_size=(1, 1), stride=(1, 1))
          (gate): Sigmoid()
        )
        (conv_pwl): Conv2d(960, 160, kernel_size=(1, 1), stride=(1, 1), bias=False)
        (bn3): BatchNormAct2d(
          160, eps=0.001, momentum=0.1, affine=True, track_running_stats=True
          (drop): Identity()
          (act): Identity()
        )
        (drop_path): Identity()
      )
      (4): InvertedResidual(
        (conv_pw): Conv2d(160, 960, kernel_size=(1, 1), stride=(1, 1), bias=False)
        (bn1): BatchNormAct2d(
          960, eps=0.001, momentum=0.1, affine=True, track_running_stats=True
          (drop): Identity()
          (act): SiLU(inplace=True)
        )
        (conv_dw): Conv2d(960, 960, kernel_size=(3, 3), stride=(1, 1), padding=(1, 1), groups=960, bias=False)
        (bn2): BatchNormAct2d(
          960, eps=0.001, momentum=0.1, affine=True, track_running_stats=True
          (drop): Identity()
          (act): SiLU(inplace=True)
        )
        (aa): Identity()
        (se): SqueezeExcite(
          (conv_reduce): Conv2d(960, 40, kernel_size=(1, 1), stride=(1, 1))
          (act1): SiLU(inplace=True)
          (conv_expand): Conv2d(40, 960, kernel_size=(1, 1), stride=(1, 1))
          (gate): Sigmoid()
        )
        (conv_pwl): Conv2d(960, 160, kernel_size=(1, 1), stride=(1, 1), bias=False)
        (bn3): BatchNormAct2d(
          160, eps=0.001, momentum=0.1, affine=True, track_running_stats=True
          (drop): Identity()
          (act): Identity()
        )
        (drop_path): Identity()
      )
      (5): InvertedResidual(
        (conv_pw): Conv2d(160, 960, kernel_size=(1, 1), stride=(1, 1), bias=False)
        (bn1): BatchNormAct2d(
          960, eps=0.001, momentum=0.1, affine=True, track_running_stats=True
          (drop): Identity()
          (act): SiLU(inplace=True)
        )
        (conv_dw): Conv2d(960, 960, kernel_size=(3, 3), stride=(1, 1), padding=(1, 1), groups=960, bias=False)
        (bn2): BatchNormAct2d(
          960, eps=0.001, momentum=0.1, affine=True, track_running_stats=True
          (drop): Identity()
          (act): SiLU(inplace=True)
        )
        (aa): Identity()
        (se): SqueezeExcite(
          (conv_reduce): Conv2d(960, 40, kernel_size=(1, 1), stride=(1, 1))
          (act1): SiLU(inplace=True)
          (conv_expand): Conv2d(40, 960, kernel_size=(1, 1), stride=(1, 1))
          (gate): Sigmoid()
        )
        (conv_pwl): Conv2d(960, 160, kernel_size=(1, 1), stride=(1, 1), bias=False)
        (bn3): BatchNormAct2d(
          160, eps=0.001, momentum=0.1, affine=True, track_running_stats=True
          (drop): Identity()
          (act): Identity()
        )
        (drop_path): Identity()
      )
      (6): InvertedResidual(
        (conv_pw): Conv2d(160, 960, kernel_size=(1, 1), stride=(1, 1), bias=False)
        (bn1): BatchNormAct2d(
          960, eps=0.001, momentum=0.1, affine=True, track_running_stats=True
          (drop): Identity()
          (act): SiLU(inplace=True)
        )
        (conv_dw): Conv2d(960, 960, kernel_size=(3, 3), stride=(1, 1), padding=(1, 1), groups=960, bias=False)
        (bn2): BatchNormAct2d(
          960, eps=0.001, momentum=0.1, affine=True, track_running_stats=True
          (drop): Identity()
          (act): SiLU(inplace=True)
        )
        (aa): Identity()
        (se): SqueezeExcite(
          (conv_reduce): Conv2d(960, 40, kernel_size=(1, 1), stride=(1, 1))
          (act1): SiLU(inplace=True)
          (conv_expand): Conv2d(40, 960, kernel_size=(1, 1), stride=(1, 1))
          (gate): Sigmoid()
        )
        (conv_pwl): Conv2d(960, 160, kernel_size=(1, 1), stride=(1, 1), bias=False)
        (bn3): BatchNormAct2d(
          160, eps=0.001, momentum=0.1, affine=True, track_running_stats=True
          (drop): Identity()
          (act): Identity()
        )
        (drop_path): Identity()
      )
    )
    (5): Sequential(
      (0): InvertedResidual(
        (conv_pw): Conv2d(160, 960, kernel_size=(1, 1), stride=(1, 1), bias=False)
        (bn1): BatchNormAct2d(
          960, eps=0.001, momentum=0.1, affine=True, track_running_stats=True
          (drop): Identity()
          (act): SiLU(inplace=True)
        )
        (conv_dw): Conv2dSame(960, 960, kernel_size=(3, 3), stride=(2, 2), groups=960, bias=False)
        (bn2): BatchNormAct2d(
          960, eps=0.001, momentum=0.1, affine=True, track_running_stats=True
          (drop): Identity()
          (act): SiLU(inplace=True)
        )
        (aa): Identity()
        (se): SqueezeExcite(
          (conv_reduce): Conv2d(960, 40, kernel_size=(1, 1), stride=(1, 1))
          (act1): SiLU(inplace=True)
          (conv_expand): Conv2d(40, 960, kernel_size=(1, 1), stride=(1, 1))
          (gate): Sigmoid()
        )
        (conv_pwl): Conv2d(960, 256, kernel_size=(1, 1), stride=(1, 1), bias=False)
        (bn3): BatchNormAct2d(
          256, eps=0.001, momentum=0.1, affine=True, track_running_stats=True
          (drop): Identity()
          (act): Identity()
        )
        (drop_path): Identity()
      )
      (1): InvertedResidual(
        (conv_pw): Conv2d(256, 1536, kernel_size=(1, 1), stride=(1, 1), bias=False)
        (bn1): BatchNormAct2d(
          1536, eps=0.001, momentum=0.1, affine=True, track_running_stats=True
          (drop): Identity()
          (act): SiLU(inplace=True)
        )
        (conv_dw): Conv2d(1536, 1536, kernel_size=(3, 3), stride=(1, 1), padding=(1, 1), groups=1536, bias=False)
        (bn2): BatchNormAct2d(
          1536, eps=0.001, momentum=0.1, affine=True, track_running_stats=True
          (drop): Identity()
          (act): SiLU(inplace=True)
        )
        (aa): Identity()
        (se): SqueezeExcite(
          (conv_reduce): Conv2d(1536, 64, kernel_size=(1, 1), stride=(1, 1))
          (act1): SiLU(inplace=True)
          (conv_expand): Conv2d(64, 1536, kernel_size=(1, 1), stride=(1, 1))
          (gate): Sigmoid()
        )
        (conv_pwl): Conv2d(1536, 256, kernel_size=(1, 1), stride=(1, 1), bias=False)
        (bn3): BatchNormAct2d(
          256, eps=0.001, momentum=0.1, affine=True, track_running_stats=True
          (drop): Identity()
          (act): Identity()
        )
        (drop_path): Identity()
      )
      (2): InvertedResidual(
        (conv_pw): Conv2d(256, 1536, kernel_size=(1, 1), stride=(1, 1), bias=False)
        (bn1): BatchNormAct2d(
          1536, eps=0.001, momentum=0.1, affine=True, track_running_stats=True
          (drop): Identity()
          (act): SiLU(inplace=True)
        )
        (conv_dw): Conv2d(1536, 1536, kernel_size=(3, 3), stride=(1, 1), padding=(1, 1), groups=1536, bias=False)
        (bn2): BatchNormAct2d(
          1536, eps=0.001, momentum=0.1, affine=True, track_running_stats=True
          (drop): Identity()
          (act): SiLU(inplace=True)
        )
        (aa): Identity()
        (se): SqueezeExcite(
          (conv_reduce): Conv2d(1536, 64, kernel_size=(1, 1), stride=(1, 1))
          (act1): SiLU(inplace=True)
          (conv_expand): Conv2d(64, 1536, kernel_size=(1, 1), stride=(1, 1))
          (gate): Sigmoid()
        )
        (conv_pwl): Conv2d(1536, 256, kernel_size=(1, 1), stride=(1, 1), bias=False)
        (bn3): BatchNormAct2d(
          256, eps=0.001, momentum=0.1, affine=True, track_running_stats=True
          (drop): Identity()
          (act): Identity()
        )
        (drop_path): Identity()
      )
      (3): InvertedResidual(
        (conv_pw): Conv2d(256, 1536, kernel_size=(1, 1), stride=(1, 1), bias=False)
        (bn1): BatchNormAct2d(
          1536, eps=0.001, momentum=0.1, affine=True, track_running_stats=True
          (drop): Identity()
          (act): SiLU(inplace=True)
        )
        (conv_dw): Conv2d(1536, 1536, kernel_size=(3, 3), stride=(1, 1), padding=(1, 1), groups=1536, bias=False)
        (bn2): BatchNormAct2d(
          1536, eps=0.001, momentum=0.1, affine=True, track_running_stats=True
          (drop): Identity()
          (act): SiLU(inplace=True)
        )
        (aa): Identity()
        (se): SqueezeExcite(
          (conv_reduce): Conv2d(1536, 64, kernel_size=(1, 1), stride=(1, 1))
          (act1): SiLU(inplace=True)
          (conv_expand): Conv2d(64, 1536, kernel_size=(1, 1), stride=(1, 1))
          (gate): Sigmoid()
        )
        (conv_pwl): Conv2d(1536, 256, kernel_size=(1, 1), stride=(1, 1), bias=False)
        (bn3): BatchNormAct2d(
          256, eps=0.001, momentum=0.1, affine=True, track_running_stats=True
          (drop): Identity()
          (act): Identity()
        )
        (drop_path): Identity()
      )
      (4): InvertedResidual(
        (conv_pw): Conv2d(256, 1536, kernel_size=(1, 1), stride=(1, 1), bias=False)
        (bn1): BatchNormAct2d(
          1536, eps=0.001, momentum=0.1, affine=True, track_running_stats=True
          (drop): Identity()
          (act): SiLU(inplace=True)
        )
        (conv_dw): Conv2d(1536, 1536, kernel_size=(3, 3), stride=(1, 1), padding=(1, 1), groups=1536, bias=False)
        (bn2): BatchNormAct2d(
          1536, eps=0.001, momentum=0.1, affine=True, track_running_stats=True
          (drop): Identity()
          (act): SiLU(inplace=True)
        )
        (aa): Identity()
        (se): SqueezeExcite(
          (conv_reduce): Conv2d(1536, 64, kernel_size=(1, 1), stride=(1, 1))
          (act1): SiLU(inplace=True)
          (conv_expand): Conv2d(64, 1536, kernel_size=(1, 1), stride=(1, 1))
          (gate): Sigmoid()
        )
        (conv_pwl): Conv2d(1536, 256, kernel_size=(1, 1), stride=(1, 1), bias=False)
        (bn3): BatchNormAct2d(
          256, eps=0.001, momentum=0.1, affine=True, track_running_stats=True
          (drop): Identity()
          (act): Identity()
        )
        (drop_path): Identity()
      )
      (5): InvertedResidual(
        (conv_pw): Conv2d(256, 1536, kernel_size=(1, 1), stride=(1, 1), bias=False)
        (bn1): BatchNormAct2d(
          1536, eps=0.001, momentum=0.1, affine=True, track_running_stats=True
          (drop): Identity()
          (act): SiLU(inplace=True)
        )
        (conv_dw): Conv2d(1536, 1536, kernel_size=(3, 3), stride=(1, 1), padding=(1, 1), groups=1536, bias=False)
        (bn2): BatchNormAct2d(
          1536, eps=0.001, momentum=0.1, affine=True, track_running_stats=True
          (drop): Identity()
          (act): SiLU(inplace=True)
        )
        (aa): Identity()
        (se): SqueezeExcite(
          (conv_reduce): Conv2d(1536, 64, kernel_size=(1, 1), stride=(1, 1))
          (act1): SiLU(inplace=True)
          (conv_expand): Conv2d(64, 1536, kernel_size=(1, 1), stride=(1, 1))
          (gate): Sigmoid()
        )
        (conv_pwl): Conv2d(1536, 256, kernel_size=(1, 1), stride=(1, 1), bias=False)
        (bn3): BatchNormAct2d(
          256, eps=0.001, momentum=0.1, affine=True, track_running_stats=True
          (drop): Identity()
          (act): Identity()
        )
        (drop_path): Identity()
      )
    )
  )
  (conv_head): Conv2d(256, 1280, kernel_size=(1, 1), stride=(1, 1), bias=False)
  (bn2): BatchNormAct2d(
    1280, eps=0.001, momentum=0.1, affine=True, track_running_stats=True
    (drop): Identity()
    (act): SiLU(inplace=True)
  )
  (global_pool): SelectAdaptivePool2d(pool_type=avg, flatten=Flatten(start_dim=1, end_dim=-1))
  (classifier): Linear(in_features=1280, out_features=1000, bias=True)
)
DALI "gpu" variant
EfficientNet(
  (features): Sequential(
    (0): Conv2dNormActivation(
      (0): Conv2d(3, 24, kernel_size=(3, 3), stride=(2, 2), padding=(1, 1), bias=False)
      (1): BatchNorm2d(24, eps=0.001, momentum=0.1, affine=True, track_running_stats=True)
      (2): SiLU(inplace=True)
    )
    (1): Sequential(
      (0): FusedMBConv(
        (block): Sequential(
          (0): Conv2dNormActivation(
            (0): Conv2d(24, 24, kernel_size=(3, 3), stride=(1, 1), padding=(1, 1), bias=False)
            (1): BatchNorm2d(24, eps=0.001, momentum=0.1, affine=True, track_running_stats=True)
            (2): SiLU(inplace=True)
          )
        )
        (stochastic_depth): StochasticDepth(p=0.0, mode=row)
      )
      (1): FusedMBConv(
        (block): Sequential(
          (0): Conv2dNormActivation(
            (0): Conv2d(24, 24, kernel_size=(3, 3), stride=(1, 1), padding=(1, 1), bias=False)
            (1): BatchNorm2d(24, eps=0.001, momentum=0.1, affine=True, track_running_stats=True)
            (2): SiLU(inplace=True)
          )
        )
        (stochastic_depth): StochasticDepth(p=0.005, mode=row)
      )
    )
    (2): Sequential(
      (0): FusedMBConv(
        (block): Sequential(
          (0): Conv2dNormActivation(
            (0): Conv2d(24, 96, kernel_size=(3, 3), stride=(2, 2), padding=(1, 1), bias=False)
            (1): BatchNorm2d(96, eps=0.001, momentum=0.1, affine=True, track_running_stats=True)
            (2): SiLU(inplace=True)
          )
          (1): Conv2dNormActivation(
            (0): Conv2d(96, 48, kernel_size=(1, 1), stride=(1, 1), bias=False)
            (1): BatchNorm2d(48, eps=0.001, momentum=0.1, affine=True, track_running_stats=True)
          )
        )
        (stochastic_depth): StochasticDepth(p=0.01, mode=row)
      )
      (1): FusedMBConv(
        (block): Sequential(
          (0): Conv2dNormActivation(
            (0): Conv2d(48, 192, kernel_size=(3, 3), stride=(1, 1), padding=(1, 1), bias=False)
            (1): BatchNorm2d(192, eps=0.001, momentum=0.1, affine=True, track_running_stats=True)
            (2): SiLU(inplace=True)
          )
          (1): Conv2dNormActivation(
            (0): Conv2d(192, 48, kernel_size=(1, 1), stride=(1, 1), bias=False)
            (1): BatchNorm2d(48, eps=0.001, momentum=0.1, affine=True, track_running_stats=True)
          )
        )
        (stochastic_depth): StochasticDepth(p=0.015000000000000003, mode=row)
      )
      (2): FusedMBConv(
        (block): Sequential(
          (0): Conv2dNormActivation(
            (0): Conv2d(48, 192, kernel_size=(3, 3), stride=(1, 1), padding=(1, 1), bias=False)
            (1): BatchNorm2d(192, eps=0.001, momentum=0.1, affine=True, track_running_stats=True)
            (2): SiLU(inplace=True)
          )
          (1): Conv2dNormActivation(
            (0): Conv2d(192, 48, kernel_size=(1, 1), stride=(1, 1), bias=False)
            (1): BatchNorm2d(48, eps=0.001, momentum=0.1, affine=True, track_running_stats=True)
          )
        )
        (stochastic_depth): StochasticDepth(p=0.02, mode=row)
      )
      (3): FusedMBConv(
        (block): Sequential(
          (0): Conv2dNormActivation(
            (0): Conv2d(48, 192, kernel_size=(3, 3), stride=(1, 1), padding=(1, 1), bias=False)
            (1): BatchNorm2d(192, eps=0.001, momentum=0.1, affine=True, track_running_stats=True)
            (2): SiLU(inplace=True)
          )
          (1): Conv2dNormActivation(
            (0): Conv2d(192, 48, kernel_size=(1, 1), stride=(1, 1), bias=False)
            (1): BatchNorm2d(48, eps=0.001, momentum=0.1, affine=True, track_running_stats=True)
          )
        )
        (stochastic_depth): StochasticDepth(p=0.025, mode=row)
      )
    )
    (3): Sequential(
      (0): FusedMBConv(
        (block): Sequential(
          (0): Conv2dNormActivation(
            (0): Conv2d(48, 192, kernel_size=(3, 3), stride=(2, 2), padding=(1, 1), bias=False)
            (1): BatchNorm2d(192, eps=0.001, momentum=0.1, affine=True, track_running_stats=True)
            (2): SiLU(inplace=True)
          )
          (1): Conv2dNormActivation(
            (0): Conv2d(192, 64, kernel_size=(1, 1), stride=(1, 1), bias=False)
            (1): BatchNorm2d(64, eps=0.001, momentum=0.1, affine=True, track_running_stats=True)
          )
        )
        (stochastic_depth): StochasticDepth(p=0.030000000000000006, mode=row)
      )
      (1): FusedMBConv(
        (block): Sequential(
          (0): Conv2dNormActivation(
            (0): Conv2d(64, 256, kernel_size=(3, 3), stride=(1, 1), padding=(1, 1), bias=False)
            (1): BatchNorm2d(256, eps=0.001, momentum=0.1, affine=True, track_running_stats=True)
            (2): SiLU(inplace=True)
          )
          (1): Conv2dNormActivation(
            (0): Conv2d(256, 64, kernel_size=(1, 1), stride=(1, 1), bias=False)
            (1): BatchNorm2d(64, eps=0.001, momentum=0.1, affine=True, track_running_stats=True)
          )
        )
        (stochastic_depth): StochasticDepth(p=0.035, mode=row)
      )
      (2): FusedMBConv(
        (block): Sequential(
          (0): Conv2dNormActivation(
            (0): Conv2d(64, 256, kernel_size=(3, 3), stride=(1, 1), padding=(1, 1), bias=False)
            (1): BatchNorm2d(256, eps=0.001, momentum=0.1, affine=True, track_running_stats=True)
            (2): SiLU(inplace=True)
          )
          (1): Conv2dNormActivation(
            (0): Conv2d(256, 64, kernel_size=(1, 1), stride=(1, 1), bias=False)
            (1): BatchNorm2d(64, eps=0.001, momentum=0.1, affine=True, track_running_stats=True)
          )
        )
        (stochastic_depth): StochasticDepth(p=0.04, mode=row)
      )
      (3): FusedMBConv(
        (block): Sequential(
          (0): Conv2dNormActivation(
            (0): Conv2d(64, 256, kernel_size=(3, 3), stride=(1, 1), padding=(1, 1), bias=False)
            (1): BatchNorm2d(256, eps=0.001, momentum=0.1, affine=True, track_running_stats=True)
            (2): SiLU(inplace=True)
          )
          (1): Conv2dNormActivation(
            (0): Conv2d(256, 64, kernel_size=(1, 1), stride=(1, 1), bias=False)
            (1): BatchNorm2d(64, eps=0.001, momentum=0.1, affine=True, track_running_stats=True)
          )
        )
        (stochastic_depth): StochasticDepth(p=0.045, mode=row)
      )
    )
    (4): Sequential(
      (0): MBConv(
        (block): Sequential(
          (0): Conv2dNormActivation(
            (0): Conv2d(64, 256, kernel_size=(1, 1), stride=(1, 1), bias=False)
            (1): BatchNorm2d(256, eps=0.001, momentum=0.1, affine=True, track_running_stats=True)
            (2): SiLU(inplace=True)
          )
          (1): Conv2dNormActivation(
            (0): Conv2d(256, 256, kernel_size=(3, 3), stride=(2, 2), padding=(1, 1), groups=256, bias=False)
            (1): BatchNorm2d(256, eps=0.001, momentum=0.1, affine=True, track_running_stats=True)
            (2): SiLU(inplace=True)
          )
          (2): SqueezeExcitation(
            (avgpool): AdaptiveAvgPool2d(output_size=1)
            (fc1): Conv2d(256, 16, kernel_size=(1, 1), stride=(1, 1))
            (fc2): Conv2d(16, 256, kernel_size=(1, 1), stride=(1, 1))
            (activation): SiLU(inplace=True)
            (scale_activation): Sigmoid()
          )
          (3): Conv2dNormActivation(
            (0): Conv2d(256, 128, kernel_size=(1, 1), stride=(1, 1), bias=False)
            (1): BatchNorm2d(128, eps=0.001, momentum=0.1, affine=True, track_running_stats=True)
          )
        )
        (stochastic_depth): StochasticDepth(p=0.05, mode=row)
      )
      (1): MBConv(
        (block): Sequential(
          (0): Conv2dNormActivation(
            (0): Conv2d(128, 512, kernel_size=(1, 1), stride=(1, 1), bias=False)
            (1): BatchNorm2d(512, eps=0.001, momentum=0.1, affine=True, track_running_stats=True)
            (2): SiLU(inplace=True)
          )
          (1): Conv2dNormActivation(
            (0): Conv2d(512, 512, kernel_size=(3, 3), stride=(1, 1), padding=(1, 1), groups=512, bias=False)
            (1): BatchNorm2d(512, eps=0.001, momentum=0.1, affine=True, track_running_stats=True)
            (2): SiLU(inplace=True)
          )
          (2): SqueezeExcitation(
            (avgpool): AdaptiveAvgPool2d(output_size=1)
            (fc1): Conv2d(512, 32, kernel_size=(1, 1), stride=(1, 1))
            (fc2): Conv2d(32, 512, kernel_size=(1, 1), stride=(1, 1))
            (activation): SiLU(inplace=True)
            (scale_activation): Sigmoid()
          )
          (3): Conv2dNormActivation(
            (0): Conv2d(512, 128, kernel_size=(1, 1), stride=(1, 1), bias=False)
            (1): BatchNorm2d(128, eps=0.001, momentum=0.1, affine=True, track_running_stats=True)
          )
        )
        (stochastic_depth): StochasticDepth(p=0.05500000000000001, mode=row)
      )
      (2): MBConv(
        (block): Sequential(
          (0): Conv2dNormActivation(
            (0): Conv2d(128, 512, kernel_size=(1, 1), stride=(1, 1), bias=False)
            (1): BatchNorm2d(512, eps=0.001, momentum=0.1, affine=True, track_running_stats=True)
            (2): SiLU(inplace=True)
          )
          (1): Conv2dNormActivation(
            (0): Conv2d(512, 512, kernel_size=(3, 3), stride=(1, 1), padding=(1, 1), groups=512, bias=False)
            (1): BatchNorm2d(512, eps=0.001, momentum=0.1, affine=True, track_running_stats=True)
            (2): SiLU(inplace=True)
          )
          (2): SqueezeExcitation(
            (avgpool): AdaptiveAvgPool2d(output_size=1)
            (fc1): Conv2d(512, 32, kernel_size=(1, 1), stride=(1, 1))
            (fc2): Conv2d(32, 512, kernel_size=(1, 1), stride=(1, 1))
            (activation): SiLU(inplace=True)
            (scale_activation): Sigmoid()
          )
          (3): Conv2dNormActivation(
            (0): Conv2d(512, 128, kernel_size=(1, 1), stride=(1, 1), bias=False)
            (1): BatchNorm2d(128, eps=0.001, momentum=0.1, affine=True, track_running_stats=True)
          )
        )
        (stochastic_depth): StochasticDepth(p=0.06000000000000001, mode=row)
      )
      (3): MBConv(
        (block): Sequential(
          (0): Conv2dNormActivation(
            (0): Conv2d(128, 512, kernel_size=(1, 1), stride=(1, 1), bias=False)
            (1): BatchNorm2d(512, eps=0.001, momentum=0.1, affine=True, track_running_stats=True)
            (2): SiLU(inplace=True)
          )
          (1): Conv2dNormActivation(
            (0): Conv2d(512, 512, kernel_size=(3, 3), stride=(1, 1), padding=(1, 1), groups=512, bias=False)
            (1): BatchNorm2d(512, eps=0.001, momentum=0.1, affine=True, track_running_stats=True)
            (2): SiLU(inplace=True)
          )
          (2): SqueezeExcitation(
            (avgpool): AdaptiveAvgPool2d(output_size=1)
            (fc1): Conv2d(512, 32, kernel_size=(1, 1), stride=(1, 1))
            (fc2): Conv2d(32, 512, kernel_size=(1, 1), stride=(1, 1))
            (activation): SiLU(inplace=True)
            (scale_activation): Sigmoid()
          )
          (3): Conv2dNormActivation(
            (0): Conv2d(512, 128, kernel_size=(1, 1), stride=(1, 1), bias=False)
            (1): BatchNorm2d(128, eps=0.001, momentum=0.1, affine=True, track_running_stats=True)
          )
        )
        (stochastic_depth): StochasticDepth(p=0.065, mode=row)
      )
      (4): MBConv(
        (block): Sequential(
          (0): Conv2dNormActivation(
            (0): Conv2d(128, 512, kernel_size=(1, 1), stride=(1, 1), bias=False)
            (1): BatchNorm2d(512, eps=0.001, momentum=0.1, affine=True, track_running_stats=True)
            (2): SiLU(inplace=True)
          )
          (1): Conv2dNormActivation(
            (0): Conv2d(512, 512, kernel_size=(3, 3), stride=(1, 1), padding=(1, 1), groups=512, bias=False)
            (1): BatchNorm2d(512, eps=0.001, momentum=0.1, affine=True, track_running_stats=True)
            (2): SiLU(inplace=True)
          )
          (2): SqueezeExcitation(
            (avgpool): AdaptiveAvgPool2d(output_size=1)
            (fc1): Conv2d(512, 32, kernel_size=(1, 1), stride=(1, 1))
            (fc2): Conv2d(32, 512, kernel_size=(1, 1), stride=(1, 1))
            (activation): SiLU(inplace=True)
            (scale_activation): Sigmoid()
          )
          (3): Conv2dNormActivation(
            (0): Conv2d(512, 128, kernel_size=(1, 1), stride=(1, 1), bias=False)
            (1): BatchNorm2d(128, eps=0.001, momentum=0.1, affine=True, track_running_stats=True)
          )
        )
        (stochastic_depth): StochasticDepth(p=0.07, mode=row)
      )
      (5): MBConv(
        (block): Sequential(
          (0): Conv2dNormActivation(
            (0): Conv2d(128, 512, kernel_size=(1, 1), stride=(1, 1), bias=False)
            (1): BatchNorm2d(512, eps=0.001, momentum=0.1, affine=True, track_running_stats=True)
            (2): SiLU(inplace=True)
          )
          (1): Conv2dNormActivation(
            (0): Conv2d(512, 512, kernel_size=(3, 3), stride=(1, 1), padding=(1, 1), groups=512, bias=False)
            (1): BatchNorm2d(512, eps=0.001, momentum=0.1, affine=True, track_running_stats=True)
            (2): SiLU(inplace=True)
          )
          (2): SqueezeExcitation(
            (avgpool): AdaptiveAvgPool2d(output_size=1)
            (fc1): Conv2d(512, 32, kernel_size=(1, 1), stride=(1, 1))
            (fc2): Conv2d(32, 512, kernel_size=(1, 1), stride=(1, 1))
            (activation): SiLU(inplace=True)
            (scale_activation): Sigmoid()
          )
          (3): Conv2dNormActivation(
            (0): Conv2d(512, 128, kernel_size=(1, 1), stride=(1, 1), bias=False)
            (1): BatchNorm2d(128, eps=0.001, momentum=0.1, affine=True, track_running_stats=True)
          )
        )
        (stochastic_depth): StochasticDepth(p=0.075, mode=row)
      )
    )
    (5): Sequential(
      (0): MBConv(
        (block): Sequential(
          (0): Conv2dNormActivation(
            (0): Conv2d(128, 768, kernel_size=(1, 1), stride=(1, 1), bias=False)
            (1): BatchNorm2d(768, eps=0.001, momentum=0.1, affine=True, track_running_stats=True)
            (2): SiLU(inplace=True)
          )
          (1): Conv2dNormActivation(
            (0): Conv2d(768, 768, kernel_size=(3, 3), stride=(1, 1), padding=(1, 1), groups=768, bias=False)
            (1): BatchNorm2d(768, eps=0.001, momentum=0.1, affine=True, track_running_stats=True)
            (2): SiLU(inplace=True)
          )
          (2): SqueezeExcitation(
            (avgpool): AdaptiveAvgPool2d(output_size=1)
            (fc1): Conv2d(768, 32, kernel_size=(1, 1), stride=(1, 1))
            (fc2): Conv2d(32, 768, kernel_size=(1, 1), stride=(1, 1))
            (activation): SiLU(inplace=True)
            (scale_activation): Sigmoid()
          )
          (3): Conv2dNormActivation(
            (0): Conv2d(768, 160, kernel_size=(1, 1), stride=(1, 1), bias=False)
            (1): BatchNorm2d(160, eps=0.001, momentum=0.1, affine=True, track_running_stats=True)
          )
        )
        (stochastic_depth): StochasticDepth(p=0.08, mode=row)
      )
      (1): MBConv(
        (block): Sequential(
          (0): Conv2dNormActivation(
            (0): Conv2d(160, 960, kernel_size=(1, 1), stride=(1, 1), bias=False)
            (1): BatchNorm2d(960, eps=0.001, momentum=0.1, affine=True, track_running_stats=True)
            (2): SiLU(inplace=True)
          )
          (1): Conv2dNormActivation(
            (0): Conv2d(960, 960, kernel_size=(3, 3), stride=(1, 1), padding=(1, 1), groups=960, bias=False)
            (1): BatchNorm2d(960, eps=0.001, momentum=0.1, affine=True, track_running_stats=True)
            (2): SiLU(inplace=True)
          )
          (2): SqueezeExcitation(
            (avgpool): AdaptiveAvgPool2d(output_size=1)
            (fc1): Conv2d(960, 40, kernel_size=(1, 1), stride=(1, 1))
            (fc2): Conv2d(40, 960, kernel_size=(1, 1), stride=(1, 1))
            (activation): SiLU(inplace=True)
            (scale_activation): Sigmoid()
          )
          (3): Conv2dNormActivation(
            (0): Conv2d(960, 160, kernel_size=(1, 1), stride=(1, 1), bias=False)
            (1): BatchNorm2d(160, eps=0.001, momentum=0.1, affine=True, track_running_stats=True)
          )
        )
        (stochastic_depth): StochasticDepth(p=0.085, mode=row)
      )
      (2): MBConv(
        (block): Sequential(
          (0): Conv2dNormActivation(
            (0): Conv2d(160, 960, kernel_size=(1, 1), stride=(1, 1), bias=False)
            (1): BatchNorm2d(960, eps=0.001, momentum=0.1, affine=True, track_running_stats=True)
            (2): SiLU(inplace=True)
          )
          (1): Conv2dNormActivation(
            (0): Conv2d(960, 960, kernel_size=(3, 3), stride=(1, 1), padding=(1, 1), groups=960, bias=False)
            (1): BatchNorm2d(960, eps=0.001, momentum=0.1, affine=True, track_running_stats=True)
            (2): SiLU(inplace=True)
          )
          (2): SqueezeExcitation(
            (avgpool): AdaptiveAvgPool2d(output_size=1)
            (fc1): Conv2d(960, 40, kernel_size=(1, 1), stride=(1, 1))
            (fc2): Conv2d(40, 960, kernel_size=(1, 1), stride=(1, 1))
            (activation): SiLU(inplace=True)
            (scale_activation): Sigmoid()
          )
          (3): Conv2dNormActivation(
            (0): Conv2d(960, 160, kernel_size=(1, 1), stride=(1, 1), bias=False)
            (1): BatchNorm2d(160, eps=0.001, momentum=0.1, affine=True, track_running_stats=True)
          )
        )
        (stochastic_depth): StochasticDepth(p=0.09, mode=row)
      )
      (3): MBConv(
        (block): Sequential(
          (0): Conv2dNormActivation(
            (0): Conv2d(160, 960, kernel_size=(1, 1), stride=(1, 1), bias=False)
            (1): BatchNorm2d(960, eps=0.001, momentum=0.1, affine=True, track_running_stats=True)
            (2): SiLU(inplace=True)
          )
          (1): Conv2dNormActivation(
            (0): Conv2d(960, 960, kernel_size=(3, 3), stride=(1, 1), padding=(1, 1), groups=960, bias=False)
            (1): BatchNorm2d(960, eps=0.001, momentum=0.1, affine=True, track_running_stats=True)
            (2): SiLU(inplace=True)
          )
          (2): SqueezeExcitation(
            (avgpool): AdaptiveAvgPool2d(output_size=1)
            (fc1): Conv2d(960, 40, kernel_size=(1, 1), stride=(1, 1))
            (fc2): Conv2d(40, 960, kernel_size=(1, 1), stride=(1, 1))
            (activation): SiLU(inplace=True)
            (scale_activation): Sigmoid()
          )
          (3): Conv2dNormActivation(
            (0): Conv2d(960, 160, kernel_size=(1, 1), stride=(1, 1), bias=False)
            (1): BatchNorm2d(160, eps=0.001, momentum=0.1, affine=True, track_running_stats=True)
          )
        )
        (stochastic_depth): StochasticDepth(p=0.095, mode=row)
      )
      (4): MBConv(
        (block): Sequential(
          (0): Conv2dNormActivation(
            (0): Conv2d(160, 960, kernel_size=(1, 1), stride=(1, 1), bias=False)
            (1): BatchNorm2d(960, eps=0.001, momentum=0.1, affine=True, track_running_stats=True)
            (2): SiLU(inplace=True)
          )
          (1): Conv2dNormActivation(
            (0): Conv2d(960, 960, kernel_size=(3, 3), stride=(1, 1), padding=(1, 1), groups=960, bias=False)
            (1): BatchNorm2d(960, eps=0.001, momentum=0.1, affine=True, track_running_stats=True)
            (2): SiLU(inplace=True)
          )
          (2): SqueezeExcitation(
            (avgpool): AdaptiveAvgPool2d(output_size=1)
            (fc1): Conv2d(960, 40, kernel_size=(1, 1), stride=(1, 1))
            (fc2): Conv2d(40, 960, kernel_size=(1, 1), stride=(1, 1))
            (activation): SiLU(inplace=True)
            (scale_activation): Sigmoid()
          )
          (3): Conv2dNormActivation(
            (0): Conv2d(960, 160, kernel_size=(1, 1), stride=(1, 1), bias=False)
            (1): BatchNorm2d(160, eps=0.001, momentum=0.1, affine=True, track_running_stats=True)
          )
        )
        (stochastic_depth): StochasticDepth(p=0.1, mode=row)
      )
      (5): MBConv(
        (block): Sequential(
          (0): Conv2dNormActivation(
            (0): Conv2d(160, 960, kernel_size=(1, 1), stride=(1, 1), bias=False)
            (1): BatchNorm2d(960, eps=0.001, momentum=0.1, affine=True, track_running_stats=True)
            (2): SiLU(inplace=True)
          )
          (1): Conv2dNormActivation(
            (0): Conv2d(960, 960, kernel_size=(3, 3), stride=(1, 1), padding=(1, 1), groups=960, bias=False)
            (1): BatchNorm2d(960, eps=0.001, momentum=0.1, affine=True, track_running_stats=True)
            (2): SiLU(inplace=True)
          )
          (2): SqueezeExcitation(
            (avgpool): AdaptiveAvgPool2d(output_size=1)
            (fc1): Conv2d(960, 40, kernel_size=(1, 1), stride=(1, 1))
            (fc2): Conv2d(40, 960, kernel_size=(1, 1), stride=(1, 1))
            (activation): SiLU(inplace=True)
            (scale_activation): Sigmoid()
          )
          (3): Conv2dNormActivation(
            (0): Conv2d(960, 160, kernel_size=(1, 1), stride=(1, 1), bias=False)
            (1): BatchNorm2d(160, eps=0.001, momentum=0.1, affine=True, track_running_stats=True)
          )
        )
        (stochastic_depth): StochasticDepth(p=0.10500000000000001, mode=row)
      )
      (6): MBConv(
        (block): Sequential(
          (0): Conv2dNormActivation(
            (0): Conv2d(160, 960, kernel_size=(1, 1), stride=(1, 1), bias=False)
            (1): BatchNorm2d(960, eps=0.001, momentum=0.1, affine=True, track_running_stats=True)
            (2): SiLU(inplace=True)
          )
          (1): Conv2dNormActivation(
            (0): Conv2d(960, 960, kernel_size=(3, 3), stride=(1, 1), padding=(1, 1), groups=960, bias=False)
            (1): BatchNorm2d(960, eps=0.001, momentum=0.1, affine=True, track_running_stats=True)
            (2): SiLU(inplace=True)
          )
          (2): SqueezeExcitation(
            (avgpool): AdaptiveAvgPool2d(output_size=1)
            (fc1): Conv2d(960, 40, kernel_size=(1, 1), stride=(1, 1))
            (fc2): Conv2d(40, 960, kernel_size=(1, 1), stride=(1, 1))
            (activation): SiLU(inplace=True)
            (scale_activation): Sigmoid()
          )
          (3): Conv2dNormActivation(
            (0): Conv2d(960, 160, kernel_size=(1, 1), stride=(1, 1), bias=False)
            (1): BatchNorm2d(160, eps=0.001, momentum=0.1, affine=True, track_running_stats=True)
          )
        )
        (stochastic_depth): StochasticDepth(p=0.11000000000000001, mode=row)
      )
      (7): MBConv(
        (block): Sequential(
          (0): Conv2dNormActivation(
            (0): Conv2d(160, 960, kernel_size=(1, 1), stride=(1, 1), bias=False)
            (1): BatchNorm2d(960, eps=0.001, momentum=0.1, affine=True, track_running_stats=True)
            (2): SiLU(inplace=True)
          )
          (1): Conv2dNormActivation(
            (0): Conv2d(960, 960, kernel_size=(3, 3), stride=(1, 1), padding=(1, 1), groups=960, bias=False)
            (1): BatchNorm2d(960, eps=0.001, momentum=0.1, affine=True, track_running_stats=True)
            (2): SiLU(inplace=True)
          )
          (2): SqueezeExcitation(
            (avgpool): AdaptiveAvgPool2d(output_size=1)
            (fc1): Conv2d(960, 40, kernel_size=(1, 1), stride=(1, 1))
            (fc2): Conv2d(40, 960, kernel_size=(1, 1), stride=(1, 1))
            (activation): SiLU(inplace=True)
            (scale_activation): Sigmoid()
          )
          (3): Conv2dNormActivation(
            (0): Conv2d(960, 160, kernel_size=(1, 1), stride=(1, 1), bias=False)
            (1): BatchNorm2d(160, eps=0.001, momentum=0.1, affine=True, track_running_stats=True)
          )
        )
        (stochastic_depth): StochasticDepth(p=0.11500000000000002, mode=row)
      )
      (8): MBConv(
        (block): Sequential(
          (0): Conv2dNormActivation(
            (0): Conv2d(160, 960, kernel_size=(1, 1), stride=(1, 1), bias=False)
            (1): BatchNorm2d(960, eps=0.001, momentum=0.1, affine=True, track_running_stats=True)
            (2): SiLU(inplace=True)
          )
          (1): Conv2dNormActivation(
            (0): Conv2d(960, 960, kernel_size=(3, 3), stride=(1, 1), padding=(1, 1), groups=960, bias=False)
            (1): BatchNorm2d(960, eps=0.001, momentum=0.1, affine=True, track_running_stats=True)
            (2): SiLU(inplace=True)
          )
          (2): SqueezeExcitation(
            (avgpool): AdaptiveAvgPool2d(output_size=1)
            (fc1): Conv2d(960, 40, kernel_size=(1, 1), stride=(1, 1))
            (fc2): Conv2d(40, 960, kernel_size=(1, 1), stride=(1, 1))
            (activation): SiLU(inplace=True)
            (scale_activation): Sigmoid()
          )
          (3): Conv2dNormActivation(
            (0): Conv2d(960, 160, kernel_size=(1, 1), stride=(1, 1), bias=False)
            (1): BatchNorm2d(160, eps=0.001, momentum=0.1, affine=True, track_running_stats=True)
          )
        )
        (stochastic_depth): StochasticDepth(p=0.12000000000000002, mode=row)
      )
    )
    (6): Sequential(
      (0): MBConv(
        (block): Sequential(
          (0): Conv2dNormActivation(
            (0): Conv2d(160, 960, kernel_size=(1, 1), stride=(1, 1), bias=False)
            (1): BatchNorm2d(960, eps=0.001, momentum=0.1, affine=True, track_running_stats=True)
            (2): SiLU(inplace=True)
          )
          (1): Conv2dNormActivation(
            (0): Conv2d(960, 960, kernel_size=(3, 3), stride=(2, 2), padding=(1, 1), groups=960, bias=False)
            (1): BatchNorm2d(960, eps=0.001, momentum=0.1, affine=True, track_running_stats=True)
            (2): SiLU(inplace=True)
          )
          (2): SqueezeExcitation(
            (avgpool): AdaptiveAvgPool2d(output_size=1)
            (fc1): Conv2d(960, 40, kernel_size=(1, 1), stride=(1, 1))
            (fc2): Conv2d(40, 960, kernel_size=(1, 1), stride=(1, 1))
            (activation): SiLU(inplace=True)
            (scale_activation): Sigmoid()
          )
          (3): Conv2dNormActivation(
            (0): Conv2d(960, 256, kernel_size=(1, 1), stride=(1, 1), bias=False)
            (1): BatchNorm2d(256, eps=0.001, momentum=0.1, affine=True, track_running_stats=True)
          )
        )
        (stochastic_depth): StochasticDepth(p=0.125, mode=row)
      )
      (1): MBConv(
        (block): Sequential(
          (0): Conv2dNormActivation(
            (0): Conv2d(256, 1536, kernel_size=(1, 1), stride=(1, 1), bias=False)
            (1): BatchNorm2d(1536, eps=0.001, momentum=0.1, affine=True, track_running_stats=True)
            (2): SiLU(inplace=True)
          )
          (1): Conv2dNormActivation(
            (0): Conv2d(1536, 1536, kernel_size=(3, 3), stride=(1, 1), padding=(1, 1), groups=1536, bias=False)
            (1): BatchNorm2d(1536, eps=0.001, momentum=0.1, affine=True, track_running_stats=True)
            (2): SiLU(inplace=True)
          )
          (2): SqueezeExcitation(
            (avgpool): AdaptiveAvgPool2d(output_size=1)
            (fc1): Conv2d(1536, 64, kernel_size=(1, 1), stride=(1, 1))
            (fc2): Conv2d(64, 1536, kernel_size=(1, 1), stride=(1, 1))
            (activation): SiLU(inplace=True)
            (scale_activation): Sigmoid()
          )
          (3): Conv2dNormActivation(
            (0): Conv2d(1536, 256, kernel_size=(1, 1), stride=(1, 1), bias=False)
            (1): BatchNorm2d(256, eps=0.001, momentum=0.1, affine=True, track_running_stats=True)
          )
        )
        (stochastic_depth): StochasticDepth(p=0.135, mode=row)
      )
    )
    (7): Conv2dNormActivation(
      (0): Conv2d(256, 1280, kernel_size=(1, 1), stride=(1, 1), bias=False)
      (1): BatchNorm2d(1280, eps=0.001, momentum=0.1, affine=True, track_running_stats=True)
      (2): SiLU(inplace=True)
    )
  )
  (avgpool): AdaptiveAvgPool2d(output_size=1)
  (classifier): Sequential(
    (0): Dropout(p=0.2, inplace=True)
    (1): Linear(in_features=1280, out_features=1000, bias=True)
  )
)
DALI "gpu" variant
pip_train.epoch_size("Reader"):1281167
/home/hsujenlung/miniconda3/envs/Roy/lib/python3.8/site-packages/nvidia/dali/plugin/base_iterator.py:208: Warning: Please set `reader_name` and don't set last_batch_padded and size manually whenever possible. This may lead, in some situations, to missing some samples or returning duplicated ones. Check the Sharding section of the documentation for more details.
…
  File "/home/hsujenlung/miniconda3/envs/Roy/lib/python3.8/site-packages/nvidia/dali/pipeline.py", line 819, in _build_graph
    outputs = define_graph()
  File "/ssd5/Roy/pytorch_resnet_cifar10-master/ImageNet_dali.py", line 24, in define_graph
    images = self.decode(self.jpegs)

encountered:

Error in thread 8: nvJPEG error (5): The user-provided allocator functions, for either memory allocation or for releasing the memory, returned a non-zero code.
Details:
n04418357/n04418357_27940.JPEG
Current pipeline object is no longer valid.
EfficientNet(
  (features): Sequential(
    (0): Conv2dNormActivation(
      (0): Conv2d(3, 24, kernel_size=(3, 3), stride=(2, 2), padding=(1, 1), bias=False)
      (1): BatchNorm2d(24, eps=0.001, momentum=0.1, affine=True, track_running_stats=True)
      (2): SiLU(inplace=True)
    )
    (1): Sequential(
      (0): FusedMBConv(
        (block): Sequential(
          (0): Conv2dNormActivation(
            (0): Conv2d(24, 24, kernel_size=(3, 3), stride=(1, 1), padding=(1, 1), bias=False)
            (1): BatchNorm2d(24, eps=0.001, momentum=0.1, affine=True, track_running_stats=True)
            (2): SiLU(inplace=True)
          )
        )
        (stochastic_depth): StochasticDepth(p=0.0, mode=row)
      )
      (1): FusedMBConv(
        (block): Sequential(
          (0): Conv2dNormActivation(
            (0): Conv2d(24, 24, kernel_size=(3, 3), stride=(1, 1), padding=(1, 1), bias=False)
            (1): BatchNorm2d(24, eps=0.001, momentum=0.1, affine=True, track_running_stats=True)
            (2): SiLU(inplace=True)
          )
        )
        (stochastic_depth): StochasticDepth(p=0.005, mode=row)
      )
    )
    (2): Sequential(
      (0): FusedMBConv(
        (block): Sequential(
          (0): Conv2dNormActivation(
            (0): Conv2d(24, 96, kernel_size=(3, 3), stride=(2, 2), padding=(1, 1), bias=False)
            (1): BatchNorm2d(96, eps=0.001, momentum=0.1, affine=True, track_running_stats=True)
            (2): SiLU(inplace=True)
          )
          (1): Conv2dNormActivation(
            (0): Conv2d(96, 48, kernel_size=(1, 1), stride=(1, 1), bias=False)
            (1): BatchNorm2d(48, eps=0.001, momentum=0.1, affine=True, track_running_stats=True)
          )
        )
        (stochastic_depth): StochasticDepth(p=0.01, mode=row)
      )
      (1): FusedMBConv(
        (block): Sequential(
          (0): Conv2dNormActivation(
            (0): Conv2d(48, 192, kernel_size=(3, 3), stride=(1, 1), padding=(1, 1), bias=False)
            (1): BatchNorm2d(192, eps=0.001, momentum=0.1, affine=True, track_running_stats=True)
            (2): SiLU(inplace=True)
          )
          (1): Conv2dNormActivation(
            (0): Conv2d(192, 48, kernel_size=(1, 1), stride=(1, 1), bias=False)
            (1): BatchNorm2d(48, eps=0.001, momentum=0.1, affine=True, track_running_stats=True)
          )
        )
        (stochastic_depth): StochasticDepth(p=0.015000000000000003, mode=row)
      )
      (2): FusedMBConv(
        (block): Sequential(
          (0): Conv2dNormActivation(
            (0): Conv2d(48, 192, kernel_size=(3, 3), stride=(1, 1), padding=(1, 1), bias=False)
            (1): BatchNorm2d(192, eps=0.001, momentum=0.1, affine=True, track_running_stats=True)
            (2): SiLU(inplace=True)
          )
          (1): Conv2dNormActivation(
            (0): Conv2d(192, 48, kernel_size=(1, 1), stride=(1, 1), bias=False)
            (1): BatchNorm2d(48, eps=0.001, momentum=0.1, affine=True, track_running_stats=True)
          )
        )
        (stochastic_depth): StochasticDepth(p=0.02, mode=row)
      )
      (3): FusedMBConv(
        (block): Sequential(
          (0): Conv2dNormActivation(
            (0): Conv2d(48, 192, kernel_size=(3, 3), stride=(1, 1), padding=(1, 1), bias=False)
            (1): BatchNorm2d(192, eps=0.001, momentum=0.1, affine=True, track_running_stats=True)
            (2): SiLU(inplace=True)
          )
          (1): Conv2dNormActivation(
            (0): Conv2d(192, 48, kernel_size=(1, 1), stride=(1, 1), bias=False)
            (1): BatchNorm2d(48, eps=0.001, momentum=0.1, affine=True, track_running_stats=True)
          )
        )
        (stochastic_depth): StochasticDepth(p=0.025, mode=row)
      )
    )
    (3): Sequential(
      (0): FusedMBConv(
        (block): Sequential(
          (0): Conv2dNormActivation(
            (0): Conv2d(48, 192, kernel_size=(3, 3), stride=(2, 2), padding=(1, 1), bias=False)
            (1): BatchNorm2d(192, eps=0.001, momentum=0.1, affine=True, track_running_stats=True)
            (2): SiLU(inplace=True)
          )
          (1): Conv2dNormActivation(
            (0): Conv2d(192, 64, kernel_size=(1, 1), stride=(1, 1), bias=False)
            (1): BatchNorm2d(64, eps=0.001, momentum=0.1, affine=True, track_running_stats=True)
          )
        )
        (stochastic_depth): StochasticDepth(p=0.030000000000000006, mode=row)
      )
      (1): FusedMBConv(
        (block): Sequential(
          (0): Conv2dNormActivation(
            (0): Conv2d(64, 256, kernel_size=(3, 3), stride=(1, 1), padding=(1, 1), bias=False)
            (1): BatchNorm2d(256, eps=0.001, momentum=0.1, affine=True, track_running_stats=True)
            (2): SiLU(inplace=True)
          )
          (1): Conv2dNormActivation(
            (0): Conv2d(256, 64, kernel_size=(1, 1), stride=(1, 1), bias=False)
            (1): BatchNorm2d(64, eps=0.001, momentum=0.1, affine=True, track_running_stats=True)
          )
        )
        (stochastic_depth): StochasticDepth(p=0.035, mode=row)
      )
      (2): FusedMBConv(
        (block): Sequential(
          (0): Conv2dNormActivation(
            (0): Conv2d(64, 256, kernel_size=(3, 3), stride=(1, 1), padding=(1, 1), bias=False)
            (1): BatchNorm2d(256, eps=0.001, momentum=0.1, affine=True, track_running_stats=True)
            (2): SiLU(inplace=True)
          )
          (1): Conv2dNormActivation(
            (0): Conv2d(256, 64, kernel_size=(1, 1), stride=(1, 1), bias=False)
            (1): BatchNorm2d(64, eps=0.001, momentum=0.1, affine=True, track_running_stats=True)
          )
        )
        (stochastic_depth): StochasticDepth(p=0.04, mode=row)
      )
      (3): FusedMBConv(
        (block): Sequential(
          (0): Conv2dNormActivation(
            (0): Conv2d(64, 256, kernel_size=(3, 3), stride=(1, 1), padding=(1, 1), bias=False)
            (1): BatchNorm2d(256, eps=0.001, momentum=0.1, affine=True, track_running_stats=True)
            (2): SiLU(inplace=True)
          )
          (1): Conv2dNormActivation(
            (0): Conv2d(256, 64, kernel_size=(1, 1), stride=(1, 1), bias=False)
            (1): BatchNorm2d(64, eps=0.001, momentum=0.1, affine=True, track_running_stats=True)
          )
        )
        (stochastic_depth): StochasticDepth(p=0.045, mode=row)
      )
    )
    (4): Sequential(
      (0): MBConv(
        (block): Sequential(
          (0): Conv2dNormActivation(
            (0): Conv2d(64, 256, kernel_size=(1, 1), stride=(1, 1), bias=False)
            (1): BatchNorm2d(256, eps=0.001, momentum=0.1, affine=True, track_running_stats=True)
            (2): SiLU(inplace=True)
          )
          (1): Conv2dNormActivation(
            (0): Conv2d(256, 256, kernel_size=(3, 3), stride=(2, 2), padding=(1, 1), groups=256, bias=False)
            (1): BatchNorm2d(256, eps=0.001, momentum=0.1, affine=True, track_running_stats=True)
            (2): SiLU(inplace=True)
          )
          (2): SqueezeExcitation(
            (avgpool): AdaptiveAvgPool2d(output_size=1)
            (fc1): Conv2d(256, 16, kernel_size=(1, 1), stride=(1, 1))
            (fc2): Conv2d(16, 256, kernel_size=(1, 1), stride=(1, 1))
            (activation): SiLU(inplace=True)
            (scale_activation): Sigmoid()
          )
          (3): Conv2dNormActivation(
            (0): Conv2d(256, 128, kernel_size=(1, 1), stride=(1, 1), bias=False)
            (1): BatchNorm2d(128, eps=0.001, momentum=0.1, affine=True, track_running_stats=True)
          )
        )
        (stochastic_depth): StochasticDepth(p=0.05, mode=row)
      )
      (1): MBConv(
        (block): Sequential(
          (0): Conv2dNormActivation(
            (0): Conv2d(128, 512, kernel_size=(1, 1), stride=(1, 1), bias=False)
            (1): BatchNorm2d(512, eps=0.001, momentum=0.1, affine=True, track_running_stats=True)
            (2): SiLU(inplace=True)
          )
          (1): Conv2dNormActivation(
            (0): Conv2d(512, 512, kernel_size=(3, 3), stride=(1, 1), padding=(1, 1), groups=512, bias=False)
            (1): BatchNorm2d(512, eps=0.001, momentum=0.1, affine=True, track_running_stats=True)
            (2): SiLU(inplace=True)
          )
          (2): SqueezeExcitation(
            (avgpool): AdaptiveAvgPool2d(output_size=1)
            (fc1): Conv2d(512, 32, kernel_size=(1, 1), stride=(1, 1))
            (fc2): Conv2d(32, 512, kernel_size=(1, 1), stride=(1, 1))
            (activation): SiLU(inplace=True)
            (scale_activation): Sigmoid()
          )
          (3): Conv2dNormActivation(
            (0): Conv2d(512, 128, kernel_size=(1, 1), stride=(1, 1), bias=False)
            (1): BatchNorm2d(128, eps=0.001, momentum=0.1, affine=True, track_running_stats=True)
          )
        )
        (stochastic_depth): StochasticDepth(p=0.05500000000000001, mode=row)
      )
      (2): MBConv(
        (block): Sequential(
          (0): Conv2dNormActivation(
            (0): Conv2d(128, 512, kernel_size=(1, 1), stride=(1, 1), bias=False)
            (1): BatchNorm2d(512, eps=0.001, momentum=0.1, affine=True, track_running_stats=True)
            (2): SiLU(inplace=True)
          )
          (1): Conv2dNormActivation(
            (0): Conv2d(512, 512, kernel_size=(3, 3), stride=(1, 1), padding=(1, 1), groups=512, bias=False)
            (1): BatchNorm2d(512, eps=0.001, momentum=0.1, affine=True, track_running_stats=True)
            (2): SiLU(inplace=True)
          )
          (2): SqueezeExcitation(
            (avgpool): AdaptiveAvgPool2d(output_size=1)
            (fc1): Conv2d(512, 32, kernel_size=(1, 1), stride=(1, 1))
            (fc2): Conv2d(32, 512, kernel_size=(1, 1), stride=(1, 1))
            (activation): SiLU(inplace=True)
            (scale_activation): Sigmoid()
          )
          (3): Conv2dNormActivation(
            (0): Conv2d(512, 128, kernel_size=(1, 1), stride=(1, 1), bias=False)
            (1): BatchNorm2d(128, eps=0.001, momentum=0.1, affine=True, track_running_stats=True)
          )
        )
        (stochastic_depth): StochasticDepth(p=0.06000000000000001, mode=row)
      )
      (3): MBConv(
        (block): Sequential(
          (0): Conv2dNormActivation(
            (0): Conv2d(128, 512, kernel_size=(1, 1), stride=(1, 1), bias=False)
            (1): BatchNorm2d(512, eps=0.001, momentum=0.1, affine=True, track_running_stats=True)
            (2): SiLU(inplace=True)
          )
          (1): Conv2dNormActivation(
            (0): Conv2d(512, 512, kernel_size=(3, 3), stride=(1, 1), padding=(1, 1), groups=512, bias=False)
            (1): BatchNorm2d(512, eps=0.001, momentum=0.1, affine=True, track_running_stats=True)
            (2): SiLU(inplace=True)
          )
          (2): SqueezeExcitation(
            (avgpool): AdaptiveAvgPool2d(output_size=1)
            (fc1): Conv2d(512, 32, kernel_size=(1, 1), stride=(1, 1))
            (fc2): Conv2d(32, 512, kernel_size=(1, 1), stride=(1, 1))
            (activation): SiLU(inplace=True)
            (scale_activation): Sigmoid()
          )
          (3): Conv2dNormActivation(
            (0): Conv2d(512, 128, kernel_size=(1, 1), stride=(1, 1), bias=False)
            (1): BatchNorm2d(128, eps=0.001, momentum=0.1, affine=True, track_running_stats=True)
          )
        )
        (stochastic_depth): StochasticDepth(p=0.065, mode=row)
      )
      (4): MBConv(
        (block): Sequential(
          (0): Conv2dNormActivation(
            (0): Conv2d(128, 512, kernel_size=(1, 1), stride=(1, 1), bias=False)
            (1): BatchNorm2d(512, eps=0.001, momentum=0.1, affine=True, track_running_stats=True)
            (2): SiLU(inplace=True)
          )
          (1): Conv2dNormActivation(
            (0): Conv2d(512, 512, kernel_size=(3, 3), stride=(1, 1), padding=(1, 1), groups=512, bias=False)
            (1): BatchNorm2d(512, eps=0.001, momentum=0.1, affine=True, track_running_stats=True)
            (2): SiLU(inplace=True)
          )
          (2): SqueezeExcitation(
            (avgpool): AdaptiveAvgPool2d(output_size=1)
            (fc1): Conv2d(512, 32, kernel_size=(1, 1), stride=(1, 1))
            (fc2): Conv2d(32, 512, kernel_size=(1, 1), stride=(1, 1))
            (activation): SiLU(inplace=True)
            (scale_activation): Sigmoid()
          )
          (3): Conv2dNormActivation(
            (0): Conv2d(512, 128, kernel_size=(1, 1), stride=(1, 1), bias=False)
            (1): BatchNorm2d(128, eps=0.001, momentum=0.1, affine=True, track_running_stats=True)
          )
        )
        (stochastic_depth): StochasticDepth(p=0.07, mode=row)
      )
      (5): MBConv(
        (block): Sequential(
          (0): Conv2dNormActivation(
            (0): Conv2d(128, 512, kernel_size=(1, 1), stride=(1, 1), bias=False)
            (1): BatchNorm2d(512, eps=0.001, momentum=0.1, affine=True, track_running_stats=True)
            (2): SiLU(inplace=True)
          )
          (1): Conv2dNormActivation(
            (0): Conv2d(512, 512, kernel_size=(3, 3), stride=(1, 1), padding=(1, 1), groups=512, bias=False)
            (1): BatchNorm2d(512, eps=0.001, momentum=0.1, affine=True, track_running_stats=True)
            (2): SiLU(inplace=True)
          )
          (2): SqueezeExcitation(
            (avgpool): AdaptiveAvgPool2d(output_size=1)
            (fc1): Conv2d(512, 32, kernel_size=(1, 1), stride=(1, 1))
            (fc2): Conv2d(32, 512, kernel_size=(1, 1), stride=(1, 1))
            (activation): SiLU(inplace=True)
            (scale_activation): Sigmoid()
          )
          (3): Conv2dNormActivation(
            (0): Conv2d(512, 128, kernel_size=(1, 1), stride=(1, 1), bias=False)
            (1): BatchNorm2d(128, eps=0.001, momentum=0.1, affine=True, track_running_stats=True)
          )
        )
        (stochastic_depth): StochasticDepth(p=0.075, mode=row)
      )
    )
    (5): Sequential(
      (0): MBConv(
        (block): Sequential(
          (0): Conv2dNormActivation(
            (0): Conv2d(128, 768, kernel_size=(1, 1), stride=(1, 1), bias=False)
            (1): BatchNorm2d(768, eps=0.001, momentum=0.1, affine=True, track_running_stats=True)
            (2): SiLU(inplace=True)
          )
          (1): Conv2dNormActivation(
            (0): Conv2d(768, 768, kernel_size=(3, 3), stride=(1, 1), padding=(1, 1), groups=768, bias=False)
            (1): BatchNorm2d(768, eps=0.001, momentum=0.1, affine=True, track_running_stats=True)
            (2): SiLU(inplace=True)
          )
          (2): SqueezeExcitation(
            (avgpool): AdaptiveAvgPool2d(output_size=1)
            (fc1): Conv2d(768, 32, kernel_size=(1, 1), stride=(1, 1))
            (fc2): Conv2d(32, 768, kernel_size=(1, 1), stride=(1, 1))
            (activation): SiLU(inplace=True)
            (scale_activation): Sigmoid()
          )
          (3): Conv2dNormActivation(
            (0): Conv2d(768, 160, kernel_size=(1, 1), stride=(1, 1), bias=False)
            (1): BatchNorm2d(160, eps=0.001, momentum=0.1, affine=True, track_running_stats=True)
          )
        )
        (stochastic_depth): StochasticDepth(p=0.08, mode=row)
      )
      (1): MBConv(
        (block): Sequential(
          (0): Conv2dNormActivation(
            (0): Conv2d(160, 960, kernel_size=(1, 1), stride=(1, 1), bias=False)
            (1): BatchNorm2d(960, eps=0.001, momentum=0.1, affine=True, track_running_stats=True)
            (2): SiLU(inplace=True)
          )
          (1): Conv2dNormActivation(
            (0): Conv2d(960, 960, kernel_size=(3, 3), stride=(1, 1), padding=(1, 1), groups=960, bias=False)
            (1): BatchNorm2d(960, eps=0.001, momentum=0.1, affine=True, track_running_stats=True)
            (2): SiLU(inplace=True)
          )
          (2): SqueezeExcitation(
            (avgpool): AdaptiveAvgPool2d(output_size=1)
            (fc1): Conv2d(960, 40, kernel_size=(1, 1), stride=(1, 1))
            (fc2): Conv2d(40, 960, kernel_size=(1, 1), stride=(1, 1))
            (activation): SiLU(inplace=True)
            (scale_activation): Sigmoid()
          )
          (3): Conv2dNormActivation(
            (0): Conv2d(960, 160, kernel_size=(1, 1), stride=(1, 1), bias=False)
            (1): BatchNorm2d(160, eps=0.001, momentum=0.1, affine=True, track_running_stats=True)
          )
        )
        (stochastic_depth): StochasticDepth(p=0.085, mode=row)
      )
      (2): MBConv(
        (block): Sequential(
          (0): Conv2dNormActivation(
            (0): Conv2d(160, 960, kernel_size=(1, 1), stride=(1, 1), bias=False)
            (1): BatchNorm2d(960, eps=0.001, momentum=0.1, affine=True, track_running_stats=True)
            (2): SiLU(inplace=True)
          )
          (1): Conv2dNormActivation(
            (0): Conv2d(960, 960, kernel_size=(3, 3), stride=(1, 1), padding=(1, 1), groups=960, bias=False)
            (1): BatchNorm2d(960, eps=0.001, momentum=0.1, affine=True, track_running_stats=True)
            (2): SiLU(inplace=True)
          )
          (2): SqueezeExcitation(
            (avgpool): AdaptiveAvgPool2d(output_size=1)
            (fc1): Conv2d(960, 40, kernel_size=(1, 1), stride=(1, 1))
            (fc2): Conv2d(40, 960, kernel_size=(1, 1), stride=(1, 1))
            (activation): SiLU(inplace=True)
            (scale_activation): Sigmoid()
          )
          (3): Conv2dNormActivation(
            (0): Conv2d(960, 160, kernel_size=(1, 1), stride=(1, 1), bias=False)
            (1): BatchNorm2d(160, eps=0.001, momentum=0.1, affine=True, track_running_stats=True)
          )
        )
        (stochastic_depth): StochasticDepth(p=0.09, mode=row)
      )
      (3): MBConv(
        (block): Sequential(
          (0): Conv2dNormActivation(
            (0): Conv2d(160, 960, kernel_size=(1, 1), stride=(1, 1), bias=False)
            (1): BatchNorm2d(960, eps=0.001, momentum=0.1, affine=True, track_running_stats=True)
            (2): SiLU(inplace=True)
          )
          (1): Conv2dNormActivation(
            (0): Conv2d(960, 960, kernel_size=(3, 3), stride=(1, 1), padding=(1, 1), groups=960, bias=False)
            (1): BatchNorm2d(960, eps=0.001, momentum=0.1, affine=True, track_running_stats=True)
            (2): SiLU(inplace=True)
          )
          (2): SqueezeExcitation(
            (avgpool): AdaptiveAvgPool2d(output_size=1)
            (fc1): Conv2d(960, 40, kernel_size=(1, 1), stride=(1, 1))
            (fc2): Conv2d(40, 960, kernel_size=(1, 1), stride=(1, 1))
            (activation): SiLU(inplace=True)
            (scale_activation): Sigmoid()
          )
          (3): Conv2dNormActivation(
            (0): Conv2d(960, 160, kernel_size=(1, 1), stride=(1, 1), bias=False)
            (1): BatchNorm2d(160, eps=0.001, momentum=0.1, affine=True, track_running_stats=True)
          )
        )
        (stochastic_depth): StochasticDepth(p=0.095, mode=row)
      )
      (4): MBConv(
        (block): Sequential(
          (0): Conv2dNormActivation(
            (0): Conv2d(160, 960, kernel_size=(1, 1), stride=(1, 1), bias=False)
            (1): BatchNorm2d(960, eps=0.001, momentum=0.1, affine=True, track_running_stats=True)
            (2): SiLU(inplace=True)
          )
          (1): Conv2dNormActivation(
            (0): Conv2d(960, 960, kernel_size=(3, 3), stride=(1, 1), padding=(1, 1), groups=960, bias=False)
            (1): BatchNorm2d(960, eps=0.001, momentum=0.1, affine=True, track_running_stats=True)
            (2): SiLU(inplace=True)
          )
          (2): SqueezeExcitation(
            (avgpool): AdaptiveAvgPool2d(output_size=1)
            (fc1): Conv2d(960, 40, kernel_size=(1, 1), stride=(1, 1))
            (fc2): Conv2d(40, 960, kernel_size=(1, 1), stride=(1, 1))
            (activation): SiLU(inplace=True)
            (scale_activation): Sigmoid()
          )
          (3): Conv2dNormActivation(
            (0): Conv2d(960, 160, kernel_size=(1, 1), stride=(1, 1), bias=False)
            (1): BatchNorm2d(160, eps=0.001, momentum=0.1, affine=True, track_running_stats=True)
          )
        )
        (stochastic_depth): StochasticDepth(p=0.1, mode=row)
      )
      (5): MBConv(
        (block): Sequential(
          (0): Conv2dNormActivation(
            (0): Conv2d(160, 960, kernel_size=(1, 1), stride=(1, 1), bias=False)
            (1): BatchNorm2d(960, eps=0.001, momentum=0.1, affine=True, track_running_stats=True)
            (2): SiLU(inplace=True)
          )
          (1): Conv2dNormActivation(
            (0): Conv2d(960, 960, kernel_size=(3, 3), stride=(1, 1), padding=(1, 1), groups=960, bias=False)
            (1): BatchNorm2d(960, eps=0.001, momentum=0.1, affine=True, track_running_stats=True)
            (2): SiLU(inplace=True)
          )
          (2): SqueezeExcitation(
            (avgpool): AdaptiveAvgPool2d(output_size=1)
            (fc1): Conv2d(960, 40, kernel_size=(1, 1), stride=(1, 1))
            (fc2): Conv2d(40, 960, kernel_size=(1, 1), stride=(1, 1))
            (activation): SiLU(inplace=True)
            (scale_activation): Sigmoid()
          )
          (3): Conv2dNormActivation(
            (0): Conv2d(960, 160, kernel_size=(1, 1), stride=(1, 1), bias=False)
            (1): BatchNorm2d(160, eps=0.001, momentum=0.1, affine=True, track_running_stats=True)
          )
        )
        (stochastic_depth): StochasticDepth(p=0.10500000000000001, mode=row)
      )
      (6): MBConv(
        (block): Sequential(
          (0): Conv2dNormActivation(
            (0): Conv2d(160, 960, kernel_size=(1, 1), stride=(1, 1), bias=False)
            (1): BatchNorm2d(960, eps=0.001, momentum=0.1, affine=True, track_running_stats=True)
            (2): SiLU(inplace=True)
          )
          (1): Conv2dNormActivation(
            (0): Conv2d(960, 960, kernel_size=(3, 3), stride=(1, 1), padding=(1, 1), groups=960, bias=False)
            (1): BatchNorm2d(960, eps=0.001, momentum=0.1, affine=True, track_running_stats=True)
            (2): SiLU(inplace=True)
          )
          (2): SqueezeExcitation(
            (avgpool): AdaptiveAvgPool2d(output_size=1)
            (fc1): Conv2d(960, 40, kernel_size=(1, 1), stride=(1, 1))
            (fc2): Conv2d(40, 960, kernel_size=(1, 1), stride=(1, 1))
            (activation): SiLU(inplace=True)
            (scale_activation): Sigmoid()
          )
          (3): Conv2dNormActivation(
            (0): Conv2d(960, 160, kernel_size=(1, 1), stride=(1, 1), bias=False)
            (1): BatchNorm2d(160, eps=0.001, momentum=0.1, affine=True, track_running_stats=True)
          )
        )
        (stochastic_depth): StochasticDepth(p=0.11000000000000001, mode=row)
      )
      (7): MBConv(
        (block): Sequential(
          (0): Conv2dNormActivation(
            (0): Conv2d(160, 960, kernel_size=(1, 1), stride=(1, 1), bias=False)
            (1): BatchNorm2d(960, eps=0.001, momentum=0.1, affine=True, track_running_stats=True)
            (2): SiLU(inplace=True)
          )
          (1): Conv2dNormActivation(
            (0): Conv2d(960, 960, kernel_size=(3, 3), stride=(1, 1), padding=(1, 1), groups=960, bias=False)
            (1): BatchNorm2d(960, eps=0.001, momentum=0.1, affine=True, track_running_stats=True)
            (2): SiLU(inplace=True)
          )
          (2): SqueezeExcitation(
            (avgpool): AdaptiveAvgPool2d(output_size=1)
            (fc1): Conv2d(960, 40, kernel_size=(1, 1), stride=(1, 1))
            (fc2): Conv2d(40, 960, kernel_size=(1, 1), stride=(1, 1))
            (activation): SiLU(inplace=True)
            (scale_activation): Sigmoid()
          )
          (3): Conv2dNormActivation(
            (0): Conv2d(960, 160, kernel_size=(1, 1), stride=(1, 1), bias=False)
            (1): BatchNorm2d(160, eps=0.001, momentum=0.1, affine=True, track_running_stats=True)
          )
        )
        (stochastic_depth): StochasticDepth(p=0.11500000000000002, mode=row)
      )
      (8): MBConv(
        (block): Sequential(
          (0): Conv2dNormActivation(
            (0): Conv2d(160, 960, kernel_size=(1, 1), stride=(1, 1), bias=False)
            (1): BatchNorm2d(960, eps=0.001, momentum=0.1, affine=True, track_running_stats=True)
            (2): SiLU(inplace=True)
          )
          (1): Conv2dNormActivation(
            (0): Conv2d(960, 960, kernel_size=(3, 3), stride=(1, 1), padding=(1, 1), groups=960, bias=False)
            (1): BatchNorm2d(960, eps=0.001, momentum=0.1, affine=True, track_running_stats=True)
            (2): SiLU(inplace=True)
          )
          (2): SqueezeExcitation(
            (avgpool): AdaptiveAvgPool2d(output_size=1)
            (fc1): Conv2d(960, 40, kernel_size=(1, 1), stride=(1, 1))
            (fc2): Conv2d(40, 960, kernel_size=(1, 1), stride=(1, 1))
            (activation): SiLU(inplace=True)
            (scale_activation): Sigmoid()
          )
          (3): Conv2dNormActivation(
            (0): Conv2d(960, 160, kernel_size=(1, 1), stride=(1, 1), bias=False)
            (1): BatchNorm2d(160, eps=0.001, momentum=0.1, affine=True, track_running_stats=True)
          )
        )
        (stochastic_depth): StochasticDepth(p=0.12000000000000002, mode=row)
      )
    )
    (6): Sequential(
      (0): MBConv(
        (block): Sequential(
          (0): Conv2dNormActivation(
            (0): Conv2d(160, 960, kernel_size=(1, 1), stride=(1, 1), bias=False)
            (1): BatchNorm2d(960, eps=0.001, momentum=0.1, affine=True, track_running_stats=True)
            (2): SiLU(inplace=True)
          )
          (1): Conv2dNormActivation(
            (0): Conv2d(960, 960, kernel_size=(3, 3), stride=(2, 2), padding=(1, 1), groups=960, bias=False)
            (1): BatchNorm2d(960, eps=0.001, momentum=0.1, affine=True, track_running_stats=True)
            (2): SiLU(inplace=True)
          )
          (2): SqueezeExcitation(
            (avgpool): AdaptiveAvgPool2d(output_size=1)
            (fc1): Conv2d(960, 40, kernel_size=(1, 1), stride=(1, 1))
            (fc2): Conv2d(40, 960, kernel_size=(1, 1), stride=(1, 1))
            (activation): SiLU(inplace=True)
            (scale_activation): Sigmoid()
          )
          (3): Conv2dNormActivation(
            (0): Conv2d(960, 256, kernel_size=(1, 1), stride=(1, 1), bias=False)
            (1): BatchNorm2d(256, eps=0.001, momentum=0.1, affine=True, track_running_stats=True)
          )
        )
        (stochastic_depth): StochasticDepth(p=0.125, mode=row)
      )
      (1): MBConv(
        (block): Sequential(
          (0): Conv2dNormActivation(
            (0): Conv2d(256, 1536, kernel_size=(1, 1), stride=(1, 1), bias=False)
            (1): BatchNorm2d(1536, eps=0.001, momentum=0.1, affine=True, track_running_stats=True)
            (2): SiLU(inplace=True)
          )
          (1): Conv2dNormActivation(
            (0): Conv2d(1536, 1536, kernel_size=(3, 3), stride=(1, 1), padding=(1, 1), groups=1536, bias=False)
            (1): BatchNorm2d(1536, eps=0.001, momentum=0.1, affine=True, track_running_stats=True)
            (2): SiLU(inplace=True)
          )
          (2): SqueezeExcitation(
            (avgpool): AdaptiveAvgPool2d(output_size=1)
            (fc1): Conv2d(1536, 64, kernel_size=(1, 1), stride=(1, 1))
            (fc2): Conv2d(64, 1536, kernel_size=(1, 1), stride=(1, 1))
            (activation): SiLU(inplace=True)
            (scale_activation): Sigmoid()
          )
          (3): Conv2dNormActivation(
            (0): Conv2d(1536, 256, kernel_size=(1, 1), stride=(1, 1), bias=False)
            (1): BatchNorm2d(256, eps=0.001, momentum=0.1, affine=True, track_running_stats=True)
          )
        )
        (stochastic_depth): StochasticDepth(p=0.135, mode=row)
      )
    )
    (7): Conv2dNormActivation(
      (0): Conv2d(256, 1280, kernel_size=(1, 1), stride=(1, 1), bias=False)
      (1): BatchNorm2d(1280, eps=0.001, momentum=0.1, affine=True, track_running_stats=True)
      (2): SiLU(inplace=True)
    )
  )
  (avgpool): AdaptiveAvgPool2d(output_size=1)
  (classifier): Sequential(
    (0): Dropout(p=0.2, inplace=True)
    (1): Linear(in_features=1280, out_features=1000, bias=True)
  )
)
DALI "gpu" variant
pip_train.epoch_size("Reader"):1281167
/home/hsujenlung/miniconda3/envs/Roy/lib/python3.8/site-packages/nvidia/dali/plugin/base_iterator.py:208: Warning: Please set `reader_name` and don't set last_batch_padded and size manually whenever possible. This may lead, in some situations, to missing some samples or returning duplicated ones. Check the Sharding section of the documentation for more details.
…
