…
el name tf_efficientnetv2_s_in21ft1k to current tf_efficientnetv2_s.in21k_ft_in1k.
  model = create_fn(
/home/hsujenlung/miniconda3/envs/Roy/lib/python3.8/site-packages/torch/cuda/__init__.py:654: UserWarning: Can't initialize NVML
  warnings.warn("Can't initialize NVML")
EfficientNet(
  (conv_stem): Conv2dSame(3, 24, kernel_size=(3, 3), stride=(2, 2), bias=False)
  (bn1): BatchNormAct2d(
    24, eps=0.001, momentum=0.1, affine=True, track_running_stats=True
    (drop): Identity()
    (act): SiLU(inplace=True)
  )
  (blocks): Sequential(
    (0): Sequential(
      (0): ConvBnAct(
        (conv): Conv2d(24, 24, kernel_size=(3, 3), stride=(1, 1), padding=(1, 1), bias=False)
        (bn1): BatchNormAct2d(
          24, eps=0.001, momentum=0.1, affine=True, track_running_stats=True
          (drop): Identity()
          (act): SiLU(inplace=True)
        )
        (aa): Identity()
        (drop_path): Identity()
      )
      (1): ConvBnAct(
        (conv): Conv2d(24, 24, kernel_size=(3, 3), stride=(1, 1), padding=(1, 1), bias=False)
        (bn1): BatchNormAct2d(
          24, eps=0.001, momentum=0.1, affine=True, track_running_stats=True
          (drop): Identity()
          (act): SiLU(inplace=True)
        )
        (aa): Identity()
        (drop_path): Identity()
      )
    )
    (1): Sequential(
      (0): EdgeResidual(
        (conv_exp): Conv2dSame(24, 96, kernel_size=(3, 3), stride=(2, 2), bias=False)
        (bn1): BatchNormAct2d(
          96, eps=0.001, momentum=0.1, affine=True, track_running_stats=True
          (drop): Identity()
          (act): SiLU(inplace=True)
        )
        (aa): Identity()
        (se): Identity()
        (conv_pwl): Conv2d(96, 48, kernel_size=(1, 1), stride=(1, 1), bias=False)
        (bn2): BatchNormAct2d(
          48, eps=0.001, momentum=0.1, affine=True, track_running_stats=True
          (drop): Identity()
          (act): Identity()
        )
        (drop_path): Identity()
      )
      (1): EdgeResidual(
        (conv_exp): Conv2d(48, 192, kernel_size=(3, 3), stride=(1, 1), padding=(1, 1), bias=False)
        (bn1): BatchNormAct2d(
          192, eps=0.001, momentum=0.1, affine=True, track_running_stats=True
          (drop): Identity()
          (act): SiLU(inplace=True)
        )
        (aa): Identity()
        (se): Identity()
        (conv_pwl): Conv2d(192, 48, kernel_size=(1, 1), stride=(1, 1), bias=False)
        (bn2): BatchNormAct2d(
          48, eps=0.001, momentum=0.1, affine=True, track_running_stats=True
          (drop): Identity()
          (act): Identity()
        )
        (drop_path): Identity()
      )
      (2): EdgeResidual(
        (conv_exp): Conv2d(48, 192, kernel_size=(3, 3), stride=(1, 1), padding=(1, 1), bias=False)
        (bn1): BatchNormAct2d(
          192, eps=0.001, momentum=0.1, affine=True, track_running_stats=True
          (drop): Identity()
          (act): SiLU(inplace=True)
        )
        (aa): Identity()
        (se): Identity()
        (conv_pwl): Conv2d(192, 48, kernel_size=(1, 1), stride=(1, 1), bias=False)
        (bn2): BatchNormAct2d(
          48, eps=0.001, momentum=0.1, affine=True, track_running_stats=True
          (drop): Identity()
          (act): Identity()
        )
        (drop_path): Identity()
      )
      (3): EdgeResidual(
        (conv_exp): Conv2d(48, 192, kernel_size=(3, 3), stride=(1, 1), padding=(1, 1), bias=False)
        (bn1): BatchNormAct2d(
          192, eps=0.001, momentum=0.1, affine=True, track_running_stats=True
          (drop): Identity()
          (act): SiLU(inplace=True)
        )
        (aa): Identity()
        (se): Identity()
        (conv_pwl): Conv2d(192, 48, kernel_size=(1, 1), stride=(1, 1), bias=False)
        (bn2): BatchNormAct2d(
          48, eps=0.001, momentum=0.1, affine=True, track_running_stats=True
          (drop): Identity()
          (act): Identity()
        )
        (drop_path): Identity()
      )
    )
    (2): Sequential(
      (0): EdgeResidual(
        (conv_exp): Conv2d(64, 256, kernel_size=(3, 3), stride=(1, 1), padding=(1, 1), bias=False)
        (bn1): BatchNormAct2d(
          256, eps=0.001, momentum=0.1, affine=True, track_running_stats=True
          (drop): Identity()
          (act): SiLU(inplace=True)
        )
        (aa): Identity()
        (se): Identity()
        (conv_pwl): Conv2d(256, 64, kernel_size=(1, 1), stride=(1, 1), bias=False)
        (bn2): BatchNormAct2d(
          64, eps=0.001, momentum=0.1, affine=True, track_running_stats=True
          (drop): Identity()
          (act): Identity()
        )
        (drop_path): Identity()
      )
      (1): EdgeResidual(
        (conv_exp): Conv2d(64, 256, kernel_size=(3, 3), stride=(1, 1), padding=(1, 1), bias=False)
        (bn1): BatchNormAct2d(
          256, eps=0.001, momentum=0.1, affine=True, track_running_stats=True
          (drop): Identity()
          (act): SiLU(inplace=True)
        )
        (aa): Identity()
        (se): Identity()
        (conv_pwl): Conv2d(256, 64, kernel_size=(1, 1), stride=(1, 1), bias=False)
        (bn2): BatchNormAct2d(
          64, eps=0.001, momentum=0.1, affine=True, track_running_stats=True
          (drop): Identity()
          (act): Identity()
        )
        (drop_path): Identity()
      )
    )
    (3): Sequential(
      (0): InvertedResidual(
        (conv_pw): Conv2d(64, 256, kernel_size=(1, 1), stride=(1, 1), bias=False)
        (bn1): BatchNormAct2d(
          256, eps=0.001, momentum=0.1, affine=True, track_running_stats=True
          (drop): Identity()
          (act): SiLU(inplace=True)
        )
        (conv_dw): Conv2dSame(256, 256, kernel_size=(3, 3), stride=(2, 2), groups=256, bias=False)
        (bn2): BatchNormAct2d(
          256, eps=0.001, momentum=0.1, affine=True, track_running_stats=True
          (drop): Identity()
          (act): SiLU(inplace=True)
        )
        (aa): Identity()
        (se): SqueezeExcite(
          (conv_reduce): Conv2d(256, 16, kernel_size=(1, 1), stride=(1, 1))
          (act1): SiLU(inplace=True)
          (conv_expand): Conv2d(16, 256, kernel_size=(1, 1), stride=(1, 1))
          (gate): Sigmoid()
        )
        (conv_pwl): Conv2d(256, 128, kernel_size=(1, 1), stride=(1, 1), bias=False)
        (bn3): BatchNormAct2d(
          128, eps=0.001, momentum=0.1, affine=True, track_running_stats=True
          (drop): Identity()
          (act): Identity()
        )
        (drop_path): Identity()
      )
    )
    (4): Sequential(
      (0): InvertedResidual(
        (conv_pw): Conv2d(128, 768, kernel_size=(1, 1), stride=(1, 1), bias=False)
        (bn1): BatchNormAct2d(
          768, eps=0.001, momentum=0.1, affine=True, track_running_stats=True
          (drop): Identity()
          (act): SiLU(inplace=True)
        )
        (conv_dw): Conv2d(768, 768, kernel_size=(3, 3), stride=(1, 1), padding=(1, 1), groups=768, bias=False)
        (bn2): BatchNormAct2d(
          768, eps=0.001, momentum=0.1, affine=True, track_running_stats=True
          (drop): Identity()
          (act): SiLU(inplace=True)
        )
        (aa): Identity()
        (se): SqueezeExcite(
          (conv_reduce): Conv2d(768, 32, kernel_size=(1, 1), stride=(1, 1))
          (act1): SiLU(inplace=True)
          (conv_expand): Conv2d(32, 768, kernel_size=(1, 1), stride=(1, 1))
          (gate): Sigmoid()
        )
        (conv_pwl): Conv2d(768, 160, kernel_size=(1, 1), stride=(1, 1), bias=False)
        (bn3): BatchNormAct2d(
          160, eps=0.001, momentum=0.1, affine=True, track_running_stats=True
          (drop): Identity()
          (act): Identity()
        )
        (drop_path): Identity()
      )
    )
    (5): Sequential(
      (0): InvertedResidual(
        (conv_pw): Conv2d(160, 960, kernel_size=(1, 1), stride=(1, 1), bias=False)
        (bn1): BatchNormAct2d(
          960, eps=0.001, momentum=0.1, affine=True, track_running_stats=True
          (drop): Identity()
          (act): SiLU(inplace=True)
        )
        (conv_dw): Conv2dSame(960, 960, kernel_size=(3, 3), stride=(2, 2), groups=960, bias=False)
        (bn2): BatchNormAct2d(
          960, eps=0.001, momentum=0.1, affine=True, track_running_stats=True
          (drop): Identity()
          (act): SiLU(inplace=True)
        )
        (aa): Identity()
        (se): SqueezeExcite(
          (conv_reduce): Conv2d(960, 40, kernel_size=(1, 1), stride=(1, 1))
          (act1): SiLU(inplace=True)
          (conv_expand): Conv2d(40, 960, kernel_size=(1, 1), stride=(1, 1))
          (gate): Sigmoid()
        )
        (conv_pwl): Conv2d(960, 256, kernel_size=(1, 1), stride=(1, 1), bias=False)
        (bn3): BatchNormAct2d(
          256, eps=0.001, momentum=0.1, affine=True, track_running_stats=True
          (drop): Identity()
          (act): Identity()
        )
        (drop_path): Identity()
      )
    )
  )
  (conv_head): Conv2d(256, 1280, kernel_size=(1, 1), stride=(1, 1), bias=False)
  (bn2): BatchNormAct2d(
    1280, eps=0.001, momentum=0.1, affine=True, track_running_stats=True
    (drop): Identity()
    (act): SiLU(inplace=True)
  )
  (global_pool): SelectAdaptivePool2d(pool_type=avg, flatten=Flatten(start_dim=1, end_dim=-1))
  (classifier): Linear(in_features=1280, out_features=1000, bias=True)
)
DALI "gpu" variant
/home/hsujenlung/miniconda3/envs/Roy/lib/python3.8/site-packages/timm/models/_factory.py:126: UserWarning: Mapping deprecated model name tf_efficientnetv2_s_in21ft1k to current tf_efficientnetv2_s.in21k_ft_in1k.
  model = create_fn(
/home/hsujenlung/miniconda3/envs/Roy/lib/python3.8/site-packages/torch/cuda/__init__.py:654: UserWarning: Can't initialize NVML
  warnings.warn("Can't initialize NVML")
EfficientNet(
  (conv_stem): Conv2dSame(3, 24, kernel_size=(3, 3), stride=(2, 2), bias=False)
  (bn1): BatchNormAct2d(
    24, eps=0.001, momentum=0.1, affine=True, track_running_stats=True
    (drop): Identity()
    (act): SiLU(inplace=True)
  )
  (blocks): Sequential(
    (0): Sequential(
      (0): ConvBnAct(
        (conv): Conv2d(24, 24, kernel_size=(3, 3), stride=(1, 1), padding=(1, 1), bias=False)
        (bn1): BatchNormAct2d(
          24, eps=0.001, momentum=0.1, affine=True, track_running_stats=True
          (drop): Identity()
          (act): SiLU(inplace=True)
        )
        (aa): Identity()
        (drop_path): Identity()
      )
      (1): ConvBnAct(
        (conv): Conv2d(24, 24, kernel_size=(3, 3), stride=(1, 1), padding=(1, 1), bias=False)
        (bn1): BatchNormAct2d(
          24, eps=0.001, momentum=0.1, affine=True, track_running_stats=True
          (drop): Identity()
          (act): SiLU(inplace=True)
        )
        (aa): Identity()
        (drop_path): Identity()
      )
    )
    (1): Sequential(
      (0): EdgeResidual(
        (conv_exp): Conv2dSame(24, 96, kernel_size=(3, 3), stride=(2, 2), bias=False)
        (bn1): BatchNormAct2d(
          96, eps=0.001, momentum=0.1, affine=True, track_running_stats=True
          (drop): Identity()
          (act): SiLU(inplace=True)
        )
        (aa): Identity()
        (se): Identity()
        (conv_pwl): Conv2d(96, 48, kernel_size=(1, 1), stride=(1, 1), bias=False)
        (bn2): BatchNormAct2d(
          48, eps=0.001, momentum=0.1, affine=True, track_running_stats=True
          (drop): Identity()
          (act): Identity()
        )
        (drop_path): Identity()
      )
      (1): EdgeResidual(
        (conv_exp): Conv2d(48, 192, kernel_size=(3, 3), stride=(1, 1), padding=(1, 1), bias=False)
        (bn1): BatchNormAct2d(
          192, eps=0.001, momentum=0.1, affine=True, track_running_stats=True
          (drop): Identity()
          (act): SiLU(inplace=True)
        )
        (aa): Identity()
        (se): Identity()
        (conv_pwl): Conv2d(192, 48, kernel_size=(1, 1), stride=(1, 1), bias=False)
        (bn2): BatchNormAct2d(
          48, eps=0.001, momentum=0.1, affine=True, track_running_stats=True
          (drop): Identity()
          (act): Identity()
        )
        (drop_path): Identity()
      )
      (2): EdgeResidual(
        (conv_exp): Conv2d(48, 192, kernel_size=(3, 3), stride=(1, 1), padding=(1, 1), bias=False)
        (bn1): BatchNormAct2d(
          192, eps=0.001, momentum=0.1, affine=True, track_running_stats=True
          (drop): Identity()
          (act): SiLU(inplace=True)
        )
        (aa): Identity()
        (se): Identity()
        (conv_pwl): Conv2d(192, 48, kernel_size=(1, 1), stride=(1, 1), bias=False)
        (bn2): BatchNormAct2d(
          48, eps=0.001, momentum=0.1, affine=True, track_running_stats=True
          (drop): Identity()
          (act): Identity()
        )
        (drop_path): Identity()
      )
      (3): EdgeResidual(
        (conv_exp): Conv2d(48, 192, kernel_size=(3, 3), stride=(1, 1), padding=(1, 1), bias=False)
        (bn1): BatchNormAct2d(
          192, eps=0.001, momentum=0.1, affine=True, track_running_stats=True
          (drop): Identity()
          (act): SiLU(inplace=True)
        )
        (aa): Identity()
        (se): Identity()
        (conv_pwl): Conv2d(192, 48, kernel_size=(1, 1), stride=(1, 1), bias=False)
        (bn2): BatchNormAct2d(
          48, eps=0.001, momentum=0.1, affine=True, track_running_stats=True
          (drop): Identity()
          (act): Identity()
        )
        (drop_path): Identity()
      )
    )
    (2): Sequential(
      (0): EdgeResidual(
        (conv_exp): Conv2d(64, 256, kernel_size=(3, 3), stride=(1, 1), padding=(1, 1), bias=False)
        (bn1): BatchNormAct2d(
          256, eps=0.001, momentum=0.1, affine=True, track_running_stats=True
          (drop): Identity()
          (act): SiLU(inplace=True)
        )
        (aa): Identity()
        (se): Identity()
        (conv_pwl): Conv2d(256, 64, kernel_size=(1, 1), stride=(1, 1), bias=False)
        (bn2): BatchNormAct2d(
          64, eps=0.001, momentum=0.1, affine=True, track_running_stats=True
          (drop): Identity()
          (act): Identity()
        )
        (drop_path): Identity()
      )
      (1): EdgeResidual(
        (conv_exp): Conv2d(64, 256, kernel_size=(3, 3), stride=(1, 1), padding=(1, 1), bias=False)
        (bn1): BatchNormAct2d(
          256, eps=0.001, momentum=0.1, affine=True, track_running_stats=True
          (drop): Identity()
          (act): SiLU(inplace=True)
        )
        (aa): Identity()
        (se): Identity()
        (conv_pwl): Conv2d(256, 64, kernel_size=(1, 1), stride=(1, 1), bias=False)
        (bn2): BatchNormAct2d(
          64, eps=0.001, momentum=0.1, affine=True, track_running_stats=True
          (drop): Identity()
          (act): Identity()
        )
        (drop_path): Identity()
      )
    )
    (3): Sequential(
      (0): InvertedResidual(
        (conv_pw): Conv2d(64, 256, kernel_size=(1, 1), stride=(1, 1), bias=False)
        (bn1): BatchNormAct2d(
          256, eps=0.001, momentum=0.1, affine=True, track_running_stats=True
          (drop): Identity()
          (act): SiLU(inplace=True)
        )
        (conv_dw): Conv2dSame(256, 256, kernel_size=(3, 3), stride=(2, 2), groups=256, bias=False)
        (bn2): BatchNormAct2d(
          256, eps=0.001, momentum=0.1, affine=True, track_running_stats=True
          (drop): Identity()
          (act): SiLU(inplace=True)
        )
        (aa): Identity()
        (se): SqueezeExcite(
          (conv_reduce): Conv2d(256, 16, kernel_size=(1, 1), stride=(1, 1))
          (act1): SiLU(inplace=True)
          (conv_expand): Conv2d(16, 256, kernel_size=(1, 1), stride=(1, 1))
          (gate): Sigmoid()
        )
        (conv_pwl): Conv2d(256, 128, kernel_size=(1, 1), stride=(1, 1), bias=False)
        (bn3): BatchNormAct2d(
          128, eps=0.001, momentum=0.1, affine=True, track_running_stats=True
          (drop): Identity()
          (act): Identity()
        )
        (drop_path): Identity()
      )
    )
    (4): Sequential(
      (0): InvertedResidual(
        (conv_pw): Conv2d(128, 768, kernel_size=(1, 1), stride=(1, 1), bias=False)
        (bn1): BatchNormAct2d(
          768, eps=0.001, momentum=0.1, affine=True, track_running_stats=True
          (drop): Identity()
          (act): SiLU(inplace=True)
        )
        (conv_dw): Conv2d(768, 768, kernel_size=(3, 3), stride=(1, 1), padding=(1, 1), groups=768, bias=False)
        (bn2): BatchNormAct2d(
          768, eps=0.001, momentum=0.1, affine=True, track_running_stats=True
          (drop): Identity()
          (act): SiLU(inplace=True)
        )
        (aa): Identity()
        (se): SqueezeExcite(
          (conv_reduce): Conv2d(768, 32, kernel_size=(1, 1), stride=(1, 1))
          (act1): SiLU(inplace=True)
          (conv_expand): Conv2d(32, 768, kernel_size=(1, 1), stride=(1, 1))
          (gate): Sigmoid()
        )
        (conv_pwl): Conv2d(768, 160, kernel_size=(1, 1), stride=(1, 1), bias=False)
        (bn3): BatchNormAct2d(
          160, eps=0.001, momentum=0.1, affine=True, track_running_stats=True
          (drop): Identity()
          (act): Identity()
        )
        (drop_path): Identity()
      )
    )
    (5): Sequential(
      (0): InvertedResidual(
        (conv_pw): Conv2d(160, 960, kernel_size=(1, 1), stride=(1, 1), bias=False)
        (bn1): BatchNormAct2d(
          960, eps=0.001, momentum=0.1, affine=True, track_running_stats=True
          (drop): Identity()
          (act): SiLU(inplace=True)
        )
        (conv_dw): Conv2dSame(960, 960, kernel_size=(3, 3), stride=(2, 2), groups=960, bias=False)
        (bn2): BatchNormAct2d(
          960, eps=0.001, momentum=0.1, affine=True, track_running_stats=True
          (drop): Identity()
          (act): SiLU(inplace=True)
        )
        (aa): Identity()
        (se): SqueezeExcite(
          (conv_reduce): Conv2d(960, 40, kernel_size=(1, 1), stride=(1, 1))
          (act1): SiLU(inplace=True)
          (conv_expand): Conv2d(40, 960, kernel_size=(1, 1), stride=(1, 1))
          (gate): Sigmoid()
        )
        (conv_pwl): Conv2d(960, 256, kernel_size=(1, 1), stride=(1, 1), bias=False)
        (bn3): BatchNormAct2d(
          256, eps=0.001, momentum=0.1, affine=True, track_running_stats=True
          (drop): Identity()
          (act): Identity()
        )
        (drop_path): Identity()
      )
    )
  )
  (conv_head): Conv2d(256, 1280, kernel_size=(1, 1), stride=(1, 1), bias=False)
  (bn2): BatchNormAct2d(
    1280, eps=0.001, momentum=0.1, affine=True, track_running_stats=True
    (drop): Identity()
    (act): SiLU(inplace=True)
  )
  (global_pool): SelectAdaptivePool2d(pool_type=avg, flatten=Flatten(start_dim=1, end_dim=-1))
  (classifier): Linear(in_features=1280, out_features=1000, bias=True)
)
DALI "gpu" variant
pip_train.epoch_size("Reader"):1281167
/home/hsujenlung/miniconda3/envs/Roy/lib/python3.8/site-packages/nvidia/dali/plugin/base_iterator.py:208: Warning: Please set `reader_name` and don't set last_batch_padded and size manually whenever possible. This may lead, in some situations, to missing some samples or returning duplicated ones. Check the Sharding section of the documentation for more details.
…
/home/hsujenlung/miniconda3/envs/Roy/lib/python3.8/site-packages/timm/models/_factory.py:126: UserWarning: Mapping deprecated model name tf_efficientnetv2_s_in21ft1k to current tf_efficientnetv2_s.in21k_ft_in1k.
  model = create_fn(
/home/hsujenlung/miniconda3/envs/Roy/lib/python3.8/site-packages/torch/cuda/__init__.py:654: UserWarning: Can't initialize NVML
  warnings.warn("Can't initialize NVML")
EfficientNet(
  (conv_stem): Conv2dSame(3, 24, kernel_size=(3, 3), stride=(2, 2), bias=False)
  (bn1): BatchNormAct2d(
    24, eps=0.001, momentum=0.1, affine=True, track_running_stats=True
    (drop): Identity()
    (act): SiLU(inplace=True)
  )
  (blocks): Sequential(
    (0): Sequential(
      (0): ConvBnAct(
        (conv): Conv2d(24, 24, kernel_size=(3, 3), stride=(1, 1), padding=(1, 1), bias=False)
        (bn1): BatchNormAct2d(
          24, eps=0.001, momentum=0.1, affine=True, track_running_stats=True
          (drop): Identity()
          (act): SiLU(inplace=True)
        )
        (aa): Identity()
        (drop_path): Identity()
      )
      (1): ConvBnAct(
        (conv): Conv2d(24, 24, kernel_size=(3, 3), stride=(1, 1), padding=(1, 1), bias=False)
        (bn1): BatchNormAct2d(
          24, eps=0.001, momentum=0.1, affine=True, track_running_stats=True
          (drop): Identity()
          (act): SiLU(inplace=True)
        )
        (aa): Identity()
        (drop_path): Identity()
      )
    )
    (1): Sequential(
      (0): EdgeResidual(
        (conv_exp): Conv2dSame(24, 96, kernel_size=(3, 3), stride=(2, 2), bias=False)
        (bn1): BatchNormAct2d(
          96, eps=0.001, momentum=0.1, affine=True, track_running_stats=True
          (drop): Identity()
          (act): SiLU(inplace=True)
        )
        (aa): Identity()
        (se): Identity()
        (conv_pwl): Conv2d(96, 48, kernel_size=(1, 1), stride=(1, 1), bias=False)
        (bn2): BatchNormAct2d(
          48, eps=0.001, momentum=0.1, affine=True, track_running_stats=True
          (drop): Identity()
          (act): Identity()
        )
        (drop_path): Identity()
      )
      (1): EdgeResidual(
        (conv_exp): Conv2d(48, 192, kernel_size=(3, 3), stride=(1, 1), padding=(1, 1), bias=False)
        (bn1): BatchNormAct2d(
          192, eps=0.001, momentum=0.1, affine=True, track_running_stats=True
          (drop): Identity()
          (act): SiLU(inplace=True)
        )
        (aa): Identity()
        (se): Identity()
        (conv_pwl): Conv2d(192, 48, kernel_size=(1, 1), stride=(1, 1), bias=False)
        (bn2): BatchNormAct2d(
          48, eps=0.001, momentum=0.1, affine=True, track_running_stats=True
          (drop): Identity()
          (act): Identity()
        )
        (drop_path): Identity()
      )
      (2): EdgeResidual(
        (conv_exp): Conv2d(48, 192, kernel_size=(3, 3), stride=(1, 1), padding=(1, 1), bias=False)
        (bn1): BatchNormAct2d(
          192, eps=0.001, momentum=0.1, affine=True, track_running_stats=True
          (drop): Identity()
          (act): SiLU(inplace=True)
        )
        (aa): Identity()
        (se): Identity()
        (conv_pwl): Conv2d(192, 48, kernel_size=(1, 1), stride=(1, 1), bias=False)
        (bn2): BatchNormAct2d(
          48, eps=0.001, momentum=0.1, affine=True, track_running_stats=True
          (drop): Identity()
          (act): Identity()
        )
        (drop_path): Identity()
      )
      (3): EdgeResidual(
        (conv_exp): Conv2d(48, 192, kernel_size=(3, 3), stride=(1, 1), padding=(1, 1), bias=False)
        (bn1): BatchNormAct2d(
          192, eps=0.001, momentum=0.1, affine=True, track_running_stats=True
          (drop): Identity()
          (act): SiLU(inplace=True)
        )
        (aa): Identity()
        (se): Identity()
        (conv_pwl): Conv2d(192, 48, kernel_size=(1, 1), stride=(1, 1), bias=False)
        (bn2): BatchNormAct2d(
          48, eps=0.001, momentum=0.1, affine=True, track_running_stats=True
          (drop): Identity()
          (act): Identity()
        )
        (drop_path): Identity()
      )
    )
    (2): Sequential(
      (0): EdgeResidual(
        (conv_exp): Conv2dSame(48, 192, kernel_size=(3, 3), stride=(2, 2), bias=False)
        (bn1): BatchNormAct2d(
          192, eps=0.001, momentum=0.1, affine=True, track_running_stats=True
          (drop): Identity()
          (act): SiLU(inplace=True)
        )
        (aa): Identity()
        (se): Identity()
        (conv_pwl): Conv2d(192, 64, kernel_size=(1, 1), stride=(1, 1), bias=False)
        (bn2): BatchNormAct2d(
          64, eps=0.001, momentum=0.1, affine=True, track_running_stats=True
          (drop): Identity()
          (act): Identity()
        )
        (drop_path): Identity()
      )
      (1): EdgeResidual(
        (conv_exp): Conv2d(64, 256, kernel_size=(3, 3), stride=(1, 1), padding=(1, 1), bias=False)
        (bn1): BatchNormAct2d(
          256, eps=0.001, momentum=0.1, affine=True, track_running_stats=True
          (drop): Identity()
          (act): SiLU(inplace=True)
        )
        (aa): Identity()
        (se): Identity()
        (conv_pwl): Conv2d(256, 64, kernel_size=(1, 1), stride=(1, 1), bias=False)
        (bn2): BatchNormAct2d(
          64, eps=0.001, momentum=0.1, affine=True, track_running_stats=True
          (drop): Identity()
          (act): Identity()
        )
        (drop_path): Identity()
      )
      (2): EdgeResidual(
        (conv_exp): Conv2d(64, 256, kernel_size=(3, 3), stride=(1, 1), padding=(1, 1), bias=False)
        (bn1): BatchNormAct2d(
          256, eps=0.001, momentum=0.1, affine=True, track_running_stats=True
          (drop): Identity()
          (act): SiLU(inplace=True)
        )
        (aa): Identity()
        (se): Identity()
        (conv_pwl): Conv2d(256, 64, kernel_size=(1, 1), stride=(1, 1), bias=False)
        (bn2): BatchNormAct2d(
          64, eps=0.001, momentum=0.1, affine=True, track_running_stats=True
          (drop): Identity()
          (act): Identity()
        )
        (drop_path): Identity()
      )
    )
    (3): Sequential(
      (0): InvertedResidual(
        (conv_pw): Conv2d(64, 256, kernel_size=(1, 1), stride=(1, 1), bias=False)
        (bn1): BatchNormAct2d(
          256, eps=0.001, momentum=0.1, affine=True, track_running_stats=True
          (drop): Identity()
          (act): SiLU(inplace=True)
        )
        (conv_dw): Conv2dSame(256, 256, kernel_size=(3, 3), stride=(2, 2), groups=256, bias=False)
        (bn2): BatchNormAct2d(
          256, eps=0.001, momentum=0.1, affine=True, track_running_stats=True
          (drop): Identity()
          (act): SiLU(inplace=True)
        )
        (aa): Identity()
        (se): SqueezeExcite(
          (conv_reduce): Conv2d(256, 16, kernel_size=(1, 1), stride=(1, 1))
          (act1): SiLU(inplace=True)
          (conv_expand): Conv2d(16, 256, kernel_size=(1, 1), stride=(1, 1))
          (gate): Sigmoid()
        )
        (conv_pwl): Conv2d(256, 128, kernel_size=(1, 1), stride=(1, 1), bias=False)
        (bn3): BatchNormAct2d(
          128, eps=0.001, momentum=0.1, affine=True, track_running_stats=True
          (drop): Identity()
          (act): Identity()
        )
        (drop_path): Identity()
      )
    )
    (4): Sequential(
      (0): InvertedResidual(
        (conv_pw): Conv2d(128, 768, kernel_size=(1, 1), stride=(1, 1), bias=False)
        (bn1): BatchNormAct2d(
          768, eps=0.001, momentum=0.1, affine=True, track_running_stats=True
          (drop): Identity()
          (act): SiLU(inplace=True)
        )
        (conv_dw): Conv2d(768, 768, kernel_size=(3, 3), stride=(1, 1), padding=(1, 1), groups=768, bias=False)
        (bn2): BatchNormAct2d(
          768, eps=0.001, momentum=0.1, affine=True, track_running_stats=True
          (drop): Identity()
          (act): SiLU(inplace=True)
        )
        (aa): Identity()
        (se): SqueezeExcite(
          (conv_reduce): Conv2d(768, 32, kernel_size=(1, 1), stride=(1, 1))
          (act1): SiLU(inplace=True)
          (conv_expand): Conv2d(32, 768, kernel_size=(1, 1), stride=(1, 1))
          (gate): Sigmoid()
        )
        (conv_pwl): Conv2d(768, 160, kernel_size=(1, 1), stride=(1, 1), bias=False)
        (bn3): BatchNormAct2d(
          160, eps=0.001, momentum=0.1, affine=True, track_running_stats=True
          (drop): Identity()
          (act): Identity()
        )
        (drop_path): Identity()
      )
    )
    (5): Sequential(
      (0): InvertedResidual(
        (conv_pw): Conv2d(160, 960, kernel_size=(1, 1), stride=(1, 1), bias=False)
        (bn1): BatchNormAct2d(
          960, eps=0.001, momentum=0.1, affine=True, track_running_stats=True
          (drop): Identity()
          (act): SiLU(inplace=True)
        )
        (conv_dw): Conv2dSame(960, 960, kernel_size=(3, 3), stride=(2, 2), groups=960, bias=False)
        (bn2): BatchNormAct2d(
          960, eps=0.001, momentum=0.1, affine=True, track_running_stats=True
          (drop): Identity()
          (act): SiLU(inplace=True)
        )
        (aa): Identity()
        (se): SqueezeExcite(
          (conv_reduce): Conv2d(960, 40, kernel_size=(1, 1), stride=(1, 1))
          (act1): SiLU(inplace=True)
          (conv_expand): Conv2d(40, 960, kernel_size=(1, 1), stride=(1, 1))
          (gate): Sigmoid()
        )
        (conv_pwl): Conv2d(960, 256, kernel_size=(1, 1), stride=(1, 1), bias=False)
        (bn3): BatchNormAct2d(
          256, eps=0.001, momentum=0.1, affine=True, track_running_stats=True
          (drop): Identity()
          (act): Identity()
        )
        (drop_path): Identity()
      )
    )
  )
  (conv_head): Conv2d(256, 1280, kernel_size=(1, 1), stride=(1, 1), bias=False)
  (bn2): BatchNormAct2d(
    1280, eps=0.001, momentum=0.1, affine=True, track_running_stats=True
    (drop): Identity()
    (act): SiLU(inplace=True)
  )
  (global_pool): SelectAdaptivePool2d(pool_type=avg, flatten=Flatten(start_dim=1, end_dim=-1))
  (classifier): Linear(in_features=1280, out_features=1000, bias=True)
)
DALI "gpu" variant
pip_train.epoch_size("Reader"):1281167
/home/hsujenlung/miniconda3/envs/Roy/lib/python3.8/site-packages/nvidia/dali/plugin/base_iterator.py:208: Warning: Please set `reader_name` and don't set last_batch_padded and size manually whenever possible. This may lead, in some situations, to missing some samples or returning duplicated ones. Check the Sharding section of the documentation for more details.
…
  File "trainer_imagenet_efficientnetv2s.py", line 103, in main
    del model.blocks[6][i]
  File "/home/hsujenlung/miniconda3/envs/Roy/lib/python3.8/site-packages/torch/nn/modules/module.py", line 1729, in __getattr__
    raise AttributeError(f"'{type(self).__name__}' object has no attribute '{name}'")
AttributeError: 'EfficientNet' object has no attribute 'blocks'
/home/hsujenlung/miniconda3/envs/Roy/lib/python3.8/site-packages/torch/cuda/__init__.py:654: UserWarning: Can't initialize NVML
  warnings.warn("Can't initialize NVML")
EfficientNet(
  (features): Sequential(
    (0): Conv2dNormActivation(
      (0): Conv2d(3, 24, kernel_size=(3, 3), stride=(2, 2), padding=(1, 1), bias=False)
      (1): BatchNorm2d(24, eps=0.001, momentum=0.1, affine=True, track_running_stats=True)
      (2): SiLU(inplace=True)
    )
    (1): Sequential(
      (0): FusedMBConv(
        (block): Sequential(
          (0): Conv2dNormActivation(
            (0): Conv2d(24, 24, kernel_size=(3, 3), stride=(1, 1), padding=(1, 1), bias=False)
            (1): BatchNorm2d(24, eps=0.001, momentum=0.1, affine=True, track_running_stats=True)
            (2): SiLU(inplace=True)
          )
        )
        (stochastic_depth): StochasticDepth(p=0.0, mode=row)
      )
      (1): FusedMBConv(
        (block): Sequential(
          (0): Conv2dNormActivation(
            (0): Conv2d(24, 24, kernel_size=(3, 3), stride=(1, 1), padding=(1, 1), bias=False)
            (1): BatchNorm2d(24, eps=0.001, momentum=0.1, affine=True, track_running_stats=True)
            (2): SiLU(inplace=True)
          )
        )
        (stochastic_depth): StochasticDepth(p=0.005, mode=row)
      )
    )
    (2): Sequential(
      (0): FusedMBConv(
        (block): Sequential(
          (0): Conv2dNormActivation(
            (0): Conv2d(24, 96, kernel_size=(3, 3), stride=(2, 2), padding=(1, 1), bias=False)
            (1): BatchNorm2d(96, eps=0.001, momentum=0.1, affine=True, track_running_stats=True)
            (2): SiLU(inplace=True)
          )
          (1): Conv2dNormActivation(
            (0): Conv2d(96, 48, kernel_size=(1, 1), stride=(1, 1), bias=False)
            (1): BatchNorm2d(48, eps=0.001, momentum=0.1, affine=True, track_running_stats=True)
          )
        )
        (stochastic_depth): StochasticDepth(p=0.01, mode=row)
      )
      (1): FusedMBConv(
        (block): Sequential(
          (0): Conv2dNormActivation(
            (0): Conv2d(48, 192, kernel_size=(3, 3), stride=(1, 1), padding=(1, 1), bias=False)
            (1): BatchNorm2d(192, eps=0.001, momentum=0.1, affine=True, track_running_stats=True)
            (2): SiLU(inplace=True)
          )
          (1): Conv2dNormActivation(
            (0): Conv2d(192, 48, kernel_size=(1, 1), stride=(1, 1), bias=False)
            (1): BatchNorm2d(48, eps=0.001, momentum=0.1, affine=True, track_running_stats=True)
          )
        )
        (stochastic_depth): StochasticDepth(p=0.015000000000000003, mode=row)
      )
    )
    (3): Sequential(
      (0): FusedMBConv(
        (block): Sequential(
          (0): Conv2dNormActivation(
            (0): Conv2d(48, 192, kernel_size=(3, 3), stride=(2, 2), padding=(1, 1), bias=False)
            (1): BatchNorm2d(192, eps=0.001, momentum=0.1, affine=True, track_running_stats=True)
            (2): SiLU(inplace=True)
          )
          (1): Conv2dNormActivation(
            (0): Conv2d(192, 64, kernel_size=(1, 1), stride=(1, 1), bias=False)
            (1): BatchNorm2d(64, eps=0.001, momentum=0.1, affine=True, track_running_stats=True)
          )
        )
        (stochastic_depth): StochasticDepth(p=0.030000000000000006, mode=row)
      )
    )
    (4): Sequential(
      (0): MBConv(
        (block): Sequential(
          (0): Conv2dNormActivation(
            (0): Conv2d(64, 256, kernel_size=(1, 1), stride=(1, 1), bias=False)
            (1): BatchNorm2d(256, eps=0.001, momentum=0.1, affine=True, track_running_stats=True)
            (2): SiLU(inplace=True)
          )
          (1): Conv2dNormActivation(
            (0): Conv2d(256, 256, kernel_size=(3, 3), stride=(2, 2), padding=(1, 1), groups=256, bias=False)
            (1): BatchNorm2d(256, eps=0.001, momentum=0.1, affine=True, track_running_stats=True)
            (2): SiLU(inplace=True)
          )
          (2): SqueezeExcitation(
            (avgpool): AdaptiveAvgPool2d(output_size=1)
            (fc1): Conv2d(256, 16, kernel_size=(1, 1), stride=(1, 1))
            (fc2): Conv2d(16, 256, kernel_size=(1, 1), stride=(1, 1))
            (activation): SiLU(inplace=True)
            (scale_activation): Sigmoid()
          )
          (3): Conv2dNormActivation(
            (0): Conv2d(256, 128, kernel_size=(1, 1), stride=(1, 1), bias=False)
            (1): BatchNorm2d(128, eps=0.001, momentum=0.1, affine=True, track_running_stats=True)
          )
        )
        (stochastic_depth): StochasticDepth(p=0.05, mode=row)
      )
    )
    (5): Sequential(
      (0): MBConv(
        (block): Sequential(
          (0): Conv2dNormActivation(
            (0): Conv2d(128, 768, kernel_size=(1, 1), stride=(1, 1), bias=False)
            (1): BatchNorm2d(768, eps=0.001, momentum=0.1, affine=True, track_running_stats=True)
            (2): SiLU(inplace=True)
          )
          (1): Conv2dNormActivation(
            (0): Conv2d(768, 768, kernel_size=(3, 3), stride=(1, 1), padding=(1, 1), groups=768, bias=False)
            (1): BatchNorm2d(768, eps=0.001, momentum=0.1, affine=True, track_running_stats=True)
            (2): SiLU(inplace=True)
          )
          (2): SqueezeExcitation(
            (avgpool): AdaptiveAvgPool2d(output_size=1)
            (fc1): Conv2d(768, 32, kernel_size=(1, 1), stride=(1, 1))
            (fc2): Conv2d(32, 768, kernel_size=(1, 1), stride=(1, 1))
            (activation): SiLU(inplace=True)
            (scale_activation): Sigmoid()
          )
          (3): Conv2dNormActivation(
            (0): Conv2d(768, 160, kernel_size=(1, 1), stride=(1, 1), bias=False)
            (1): BatchNorm2d(160, eps=0.001, momentum=0.1, affine=True, track_running_stats=True)
          )
        )
        (stochastic_depth): StochasticDepth(p=0.08, mode=row)
      )
      (1): MBConv(
        (block): Sequential(
          (0): Conv2dNormActivation(
            (0): Conv2d(160, 960, kernel_size=(1, 1), stride=(1, 1), bias=False)
            (1): BatchNorm2d(960, eps=0.001, momentum=0.1, affine=True, track_running_stats=True)
            (2): SiLU(inplace=True)
          )
          (1): Conv2dNormActivation(
            (0): Conv2d(960, 960, kernel_size=(3, 3), stride=(1, 1), padding=(1, 1), groups=960, bias=False)
            (1): BatchNorm2d(960, eps=0.001, momentum=0.1, affine=True, track_running_stats=True)
            (2): SiLU(inplace=True)
          )
          (2): SqueezeExcitation(
            (avgpool): AdaptiveAvgPool2d(output_size=1)
            (fc1): Conv2d(960, 40, kernel_size=(1, 1), stride=(1, 1))
            (fc2): Conv2d(40, 960, kernel_size=(1, 1), stride=(1, 1))
            (activation): SiLU(inplace=True)
            (scale_activation): Sigmoid()
          )
          (3): Conv2dNormActivation(
            (0): Conv2d(960, 160, kernel_size=(1, 1), stride=(1, 1), bias=False)
            (1): BatchNorm2d(160, eps=0.001, momentum=0.1, affine=True, track_running_stats=True)
          )
        )
        (stochastic_depth): StochasticDepth(p=0.085, mode=row)
      )
    )
    (6): Sequential(
      (0): MBConv(
        (block): Sequential(
          (0): Conv2dNormActivation(
            (0): Conv2d(160, 960, kernel_size=(1, 1), stride=(1, 1), bias=False)
            (1): BatchNorm2d(960, eps=0.001, momentum=0.1, affine=True, track_running_stats=True)
            (2): SiLU(inplace=True)
          )
          (1): Conv2dNormActivation(
            (0): Conv2d(960, 960, kernel_size=(3, 3), stride=(2, 2), padding=(1, 1), groups=960, bias=False)
            (1): BatchNorm2d(960, eps=0.001, momentum=0.1, affine=True, track_running_stats=True)
            (2): SiLU(inplace=True)
          )
          (2): SqueezeExcitation(
            (avgpool): AdaptiveAvgPool2d(output_size=1)
            (fc1): Conv2d(960, 40, kernel_size=(1, 1), stride=(1, 1))
            (fc2): Conv2d(40, 960, kernel_size=(1, 1), stride=(1, 1))
            (activation): SiLU(inplace=True)
            (scale_activation): Sigmoid()
          )
          (3): Conv2dNormActivation(
            (0): Conv2d(960, 256, kernel_size=(1, 1), stride=(1, 1), bias=False)
            (1): BatchNorm2d(256, eps=0.001, momentum=0.1, affine=True, track_running_stats=True)
          )
        )
        (stochastic_depth): StochasticDepth(p=0.125, mode=row)
      )
    )
    (7): Conv2dNormActivation(
      (0): Conv2d(256, 1280, kernel_size=(1, 1), stride=(1, 1), bias=False)
      (1): BatchNorm2d(1280, eps=0.001, momentum=0.1, affine=True, track_running_stats=True)
      (2): SiLU(inplace=True)
    )
  )
  (avgpool): AdaptiveAvgPool2d(output_size=1)
  (classifier): Sequential(
    (0): Dropout(p=0.2, inplace=True)
    (1): Linear(in_features=1280, out_features=1000, bias=True)
  )
)
DALI "gpu" variant
pip_train.epoch_size("Reader"):1281167
/home/hsujenlung/miniconda3/envs/Roy/lib/python3.8/site-packages/nvidia/dali/plugin/base_iterator.py:208: Warning: Please set `reader_name` and don't set last_batch_padded and size manually whenever possible. This may lead, in some situations, to missing some samples or returning duplicated ones. Check the Sharding section of the documentation for more details.
…
